…
I0926 18:15:35.086967  4344 solver.cpp:87] Creating training net from net file: ./train_val.prototxt
I0926 18:15:35.087327  4344 net.cpp:294] The NetState phase (0) differed from the phase (1) specified by a rule in layer data
I0926 18:15:35.087540  4344 net.cpp:51] Initializing net from parameters: 
name: "AlexNet"
state {
  phase: TRAIN
  level: 0
  stage: ""
}
layer {
  name: "data"
  type: "Data"
  top: "data"
  top: "label"
  include {
    phase: TRAIN
  }
  transform_param {
    mirror: true
    crop_size: 227
  }
  data_param {
    source: "/home/hzzone/1tb/data/train_lmdb"
    batch_size: 128
    backend: LMDB
  }
}
layer {
  name: "conv1"
  type: "Convolution"
  bottom: "data"
  top: "conv1"
  param {
    lr_mult: 1
    decay_mult: 1
  }
  param {
    lr_mult: 2
    decay_mult: 0
  }
  convolution_param {
    num_output: 96
    kernel_size: 11
    stride: 4
    weight_filler {
      type: "gaussian"
      std: 0.01
    }
    bias_filler {
      type: "constant"
      value: 0
    }
  }
}
layer {
  name: "relu1"
  type: "ReLU"
  bottom: "conv1"
  top: "conv1"
}
layer {
  name: "norm1"
  type: "LRN"
  bottom: "conv1"
  top: "norm1"
  lrn_param {
    local_size: 5
    alpha: 0.0001
    beta: 0.75
  }
}
layer {
  name: "pool1"
  type: "Pooling"
  bottom: "norm1"
  top: "pool1"
  pooling_param {
    pool: MAX
    kernel_size: 3
    stride: 2
  }
}
layer {
  name: "conv2"
  type: "Convolution"
  bottom: "pool1"
  top: "conv2"
  param {
    lr_mult: 1
    decay_mult: 1
  }
  param {
    lr_mult: 2
    decay_mult: 0
  }
  convolution_param {
    num_output: 256
    pad: 2
    kernel_size: 5
    group: 2
    weight_filler {
      type: "gaussian"
      std: 0.01
    }
    bias_filler {
      type: "constant"
      value: 0.1
    }
  }
}
layer {
  name: "relu2"
  type: "ReLU"
  bottom: "conv2"
  top: "conv2"
}
layer {
  name: "norm2"
  type: "LRN"
  bottom: "conv2"
  top: "norm2"
  lrn_param {
    local_size: 5
    alpha: 0.0001
    beta: 0.75
  }
}
layer {
  name: "pool2"
  type: "Pooling"
  bottom: "norm2"
  top: "pool2"
  pooling_param {
    pool: MAX
    kernel_size: 3
    stride: 2
  }
}
layer {
  name: "conv3"
  type: "Convolution"
  bottom: "pool2"
  top: "conv3"
  param {
    lr_mult: 1
    decay_mult: 1
  }
  param {
    lr_mult: 2
    decay_mult: 0
  }
  convolution_param {
    num_output: 384
    pad: 1
    kernel_size: 3
    weight_filler {
      type: "gaussian"
      std: 0.01
    }
    bias_filler {
      type: "constant"
      value: 0
    }
  }
}
layer {
  name: "relu3"
  type: "ReLU"
  bottom: "conv3"
  top: "conv3"
}
layer {
  name: "conv4"
  type: "Convolution"
  bottom: "conv3"
  top: "conv4"
  param {
    lr_mult: 1
    decay_mult: 1
  }
  param {
    lr_mult: 2
    decay_mult: 0
  }
  convolution_param {
    num_output: 384
    pad: 1
    kernel_size: 3
    group: 2
    weight_filler {
      type: "gaussian"
      std: 0.01
    }
    bias_filler {
      type: "constant"
      value: 0.1
    }
  }
}
layer {
  name: "relu4"
  type: "ReLU"
  bottom: "conv4"
  top: "conv4"
}
layer {
  name: "conv5"
  type: "Convolution"
  bottom: "conv4"
  top: "conv5"
  param {
    lr_mult: 1
    decay_mult: 1
  }
  param {
    lr_mult: 2
    decay_mult: 0
  }
  convolution_param {
    num_output: 256
    pad: 1
    kernel_size: 3
    group: 2
    weight_filler {
      type: "gaussian"
      std: 0.01
    }
    bias_filler {
      type: "constant"
      value: 0.1
    }
  }
}
layer {
  name: "relu5"
  type: "ReLU"
  bottom: "conv5"
  top: "conv5"
}
layer {
  name: "pool5"
  type: "Pooling"
  bottom: "conv5"
  top: "pool5"
  pooling_param {
    pool: MAX
    kernel_size: 3
    stride: 2
  }
}
layer {
  name: "fc6"
  type: "InnerProduct"
  bottom: "pool5"
  top: "fc6"
  param {
    lr_mult: 1
    decay_mult: 1
  }
  param {
    lr_mult: 2
    decay_mult: 0
  }
  inner_product_param {
    num_output: 4096
    weight_filler {
      type: "gaussian"
      std: 0.005
    }
    bias_filler {
      type: "constant"
      value: 0.1
    }
  }
}
layer {
  name: "relu6"
  type: "ReLU"
  bottom: "fc6"
  top: "fc6"
}
layer {
  name: "drop6"
  type: "Dropout"
  bottom: "fc6"
  top: "fc6"
  dropout_param {
    dropout_ratio: 0.5
  }
}
layer {
  name: "fc7"
  type: "InnerProduct"
  bottom: "fc6"
  top: "fc7"
  param {
    lr_mult: 1
    decay_mult: 1
  }
  param {
    lr_mult: 2
    decay_mult: 0
  }
  inner_product_param {
    num_output: 4096
    weight_filler {
      type: "gaussian"
      std: 0.005
    }
    bias_filler {
      type: "constant"
      value: 0.1
    }
  }
}
layer {
  name: "relu7"
  type: "ReLU"
  bottom: "fc7"
  top: "fc7"
}
layer {
  name: "drop7"
  type: "Dropout"
  bottom: "fc7"
  top: "fc7"
  dropout_param {
    dropout_ratio: 0.5
  }
}
layer {
  name: "my-fc8"
  type: "InnerProduct"
  bottom: "fc7"
  top: "my-fc8"
  param {
    lr_mult: 1
    decay_mult: 1
  }
  param {
    lr_mult: 2
    decay_mult: 0
  }
  inner_product_param {
    num_output: 10572
    weight_filler {
      type: "gaussian"
      std: 0.01
    }
    bias_filler {
      type: "constant"
      value: 0
    }
  }
}
layer {
  name: "loss"
  type: "SoftmaxWithLoss"
  bottom: "my-fc8"
  bottom: "label"
  top: "loss"
}
I0926 18:15:35.087667  4344 layer_factory.hpp:77] Creating layer data
I0926 18:15:35.087800  4344 db_lmdb.cpp:35] Opened lmdb /home/hzzone/1tb/data/train_lmdb
I0926 18:15:35.087839  4344 net.cpp:84] Creating Layer data
I0926 18:15:35.087852  4344 net.cpp:380] data -> data
I0926 18:15:35.087878  4344 net.cpp:380] data -> label
I0926 18:15:35.089454  4344 data_layer.cpp:45] output data size: 128,3,227,227
I0926 18:15:35.292649  4344 net.cpp:122] Setting up data
I0926 18:15:35.292807  4344 net.cpp:129] Top shape: 128 3 227 227 (19787136)
I0926 18:15:35.292842  4344 net.cpp:129] Top shape: 128 (128)
I0926 18:15:35.292851  4344 net.cpp:137] Memory required for data: 79149056
I0926 18:15:35.292867  4344 layer_factory.hpp:77] Creating layer conv1
I0926 18:15:35.292901  4344 net.cpp:84] Creating Layer conv1
I0926 18:15:35.292913  4344 net.cpp:406] conv1 <- data
I0926 18:15:35.292932  4344 net.cpp:380] conv1 -> conv1
I0926 18:15:35.654541  4344 net.cpp:122] Setting up conv1
I0926 18:15:35.654613  4344 net.cpp:129] Top shape: 128 96 55 55 (37171200)
I0926 18:15:35.654623  4344 net.cpp:137] Memory required for data: 227833856
I0926 18:15:35.654664  4344 layer_factory.hpp:77] Creating layer relu1
I0926 18:15:35.654687  4344 net.cpp:84] Creating Layer relu1
I0926 18:15:35.654698  4344 net.cpp:406] relu1 <- conv1
I0926 18:15:35.654711  4344 net.cpp:367] relu1 -> conv1 (in-place)
I0926 18:15:35.654974  4344 net.cpp:122] Setting up relu1
I0926 18:15:35.654988  4344 net.cpp:129] Top shape: 128 96 55 55 (37171200)
I0926 18:15:35.654994  4344 net.cpp:137] Memory required for data: 376518656
I0926 18:15:35.655001  4344 layer_factory.hpp:77] Creating layer norm1
I0926 18:15:35.655014  4344 net.cpp:84] Creating Layer norm1
I0926 18:15:35.655021  4344 net.cpp:406] norm1 <- conv1
I0926 18:15:35.655030  4344 net.cpp:380] norm1 -> norm1
I0926 18:15:35.655262  4344 net.cpp:122] Setting up norm1
I0926 18:15:35.655274  4344 net.cpp:129] Top shape: 128 96 55 55 (37171200)
I0926 18:15:35.655280  4344 net.cpp:137] Memory required for data: 525203456
I0926 18:15:35.655287  4344 layer_factory.hpp:77] Creating layer pool1
I0926 18:15:35.655299  4344 net.cpp:84] Creating Layer pool1
I0926 18:15:35.655305  4344 net.cpp:406] pool1 <- norm1
I0926 18:15:35.655314  4344 net.cpp:380] pool1 -> pool1
I0926 18:15:35.655362  4344 net.cpp:122] Setting up pool1
I0926 18:15:35.655374  4344 net.cpp:129] Top shape: 128 96 27 27 (8957952)
I0926 18:15:35.655390  4344 net.cpp:137] Memory required for data: 561035264
I0926 18:15:35.655407  4344 layer_factory.hpp:77] Creating layer conv2
I0926 18:15:35.655422  4344 net.cpp:84] Creating Layer conv2
I0926 18:15:35.655428  4344 net.cpp:406] conv2 <- pool1
I0926 18:15:35.655438  4344 net.cpp:380] conv2 -> conv2
I0926 18:15:35.663470  4344 net.cpp:122] Setting up conv2
I0926 18:15:35.663535  4344 net.cpp:129] Top shape: 128 256 27 27 (23887872)
I0926 18:15:35.663543  4344 net.cpp:137] Memory required for data: 656586752
I0926 18:15:35.663568  4344 layer_factory.hpp:77] Creating layer relu2
I0926 18:15:35.663584  4344 net.cpp:84] Creating Layer relu2
I0926 18:15:35.663594  4344 net.cpp:406] relu2 <- conv2
I0926 18:15:35.663605  4344 net.cpp:367] relu2 -> conv2 (in-place)
I0926 18:15:35.663863  4344 net.cpp:122] Setting up relu2
I0926 18:15:35.663875  4344 net.cpp:129] Top shape: 128 256 27 27 (23887872)
I0926 18:15:35.663882  4344 net.cpp:137] Memory required for data: 752138240
I0926 18:15:35.663889  4344 layer_factory.hpp:77] Creating layer norm2
I0926 18:15:35.663900  4344 net.cpp:84] Creating Layer norm2
I0926 18:15:35.663908  4344 net.cpp:406] norm2 <- conv2
I0926 18:15:35.663916  4344 net.cpp:380] norm2 -> norm2
I0926 18:15:35.664487  4344 net.cpp:122] Setting up norm2
I0926 18:15:35.664502  4344 net.cpp:129] Top shape: 128 256 27 27 (23887872)
I0926 18:15:35.664510  4344 net.cpp:137] Memory required for data: 847689728
I0926 18:15:35.664516  4344 layer_factory.hpp:77] Creating layer pool2
I0926 18:15:35.664527  4344 net.cpp:84] Creating Layer pool2
I0926 18:15:35.664559  4344 net.cpp:406] pool2 <- norm2
I0926 18:15:35.664568  4344 net.cpp:380] pool2 -> pool2
I0926 18:15:35.664613  4344 net.cpp:122] Setting up pool2
I0926 18:15:35.664623  4344 net.cpp:129] Top shape: 128 256 13 13 (5537792)
I0926 18:15:35.664629  4344 net.cpp:137] Memory required for data: 869840896
I0926 18:15:35.664636  4344 layer_factory.hpp:77] Creating layer conv3
I0926 18:15:35.664654  4344 net.cpp:84] Creating Layer conv3
I0926 18:15:35.664661  4344 net.cpp:406] conv3 <- pool2
I0926 18:15:35.664671  4344 net.cpp:380] conv3 -> conv3
I0926 18:15:35.678068  4344 net.cpp:122] Setting up conv3
I0926 18:15:35.678117  4344 net.cpp:129] Top shape: 128 384 13 13 (8306688)
I0926 18:15:35.678125  4344 net.cpp:137] Memory required for data: 903067648
I0926 18:15:35.678148  4344 layer_factory.hpp:77] Creating layer relu3
I0926 18:15:35.678162  4344 net.cpp:84] Creating Layer relu3
I0926 18:15:35.678171  4344 net.cpp:406] relu3 <- conv3
I0926 18:15:35.678182  4344 net.cpp:367] relu3 -> conv3 (in-place)
I0926 18:15:35.678622  4344 net.cpp:122] Setting up relu3
I0926 18:15:35.678634  4344 net.cpp:129] Top shape: 128 384 13 13 (8306688)
I0926 18:15:35.678642  4344 net.cpp:137] Memory required for data: 936294400
I0926 18:15:35.678648  4344 layer_factory.hpp:77] Creating layer conv4
I0926 18:15:35.678663  4344 net.cpp:84] Creating Layer conv4
I0926 18:15:35.678670  4344 net.cpp:406] conv4 <- conv3
I0926 18:15:35.678680  4344 net.cpp:380] conv4 -> conv4
I0926 18:15:35.690037  4344 net.cpp:122] Setting up conv4
I0926 18:15:35.690093  4344 net.cpp:129] Top shape: 128 384 13 13 (8306688)
I0926 18:15:35.690100  4344 net.cpp:137] Memory required for data: 969521152
I0926 18:15:35.690116  4344 layer_factory.hpp:77] Creating layer relu4
I0926 18:15:35.690131  4344 net.cpp:84] Creating Layer relu4
I0926 18:15:35.690140  4344 net.cpp:406] relu4 <- conv4
I0926 18:15:35.690152  4344 net.cpp:367] relu4 -> conv4 (in-place)
I0926 18:15:35.690598  4344 net.cpp:122] Setting up relu4
I0926 18:15:35.690611  4344 net.cpp:129] Top shape: 128 384 13 13 (8306688)
I0926 18:15:35.690618  4344 net.cpp:137] Memory required for data: 1002747904
I0926 18:15:35.690624  4344 layer_factory.hpp:77] Creating layer conv5
I0926 18:15:35.690640  4344 net.cpp:84] Creating Layer conv5
I0926 18:15:35.690647  4344 net.cpp:406] conv5 <- conv4
I0926 18:15:35.690657  4344 net.cpp:380] conv5 -> conv5
I0926 18:15:35.699518  4344 net.cpp:122] Setting up conv5
I0926 18:15:35.699570  4344 net.cpp:129] Top shape: 128 256 13 13 (5537792)
I0926 18:15:35.699591  4344 net.cpp:137] Memory required for data: 1024899072
I0926 18:15:35.699623  4344 layer_factory.hpp:77] Creating layer relu5
I0926 18:15:35.699638  4344 net.cpp:84] Creating Layer relu5
I0926 18:15:35.699646  4344 net.cpp:406] relu5 <- conv5
I0926 18:15:35.699658  4344 net.cpp:367] relu5 -> conv5 (in-place)
I0926 18:15:35.699841  4344 net.cpp:122] Setting up relu5
I0926 18:15:35.699853  4344 net.cpp:129] Top shape: 128 256 13 13 (5537792)
I0926 18:15:35.699859  4344 net.cpp:137] Memory required for data: 1047050240
I0926 18:15:35.699867  4344 layer_factory.hpp:77] Creating layer pool5
I0926 18:15:35.699877  4344 net.cpp:84] Creating Layer pool5
I0926 18:15:35.699883  4344 net.cpp:406] pool5 <- conv5
I0926 18:15:35.699892  4344 net.cpp:380] pool5 -> pool5
I0926 18:15:35.699937  4344 net.cpp:122] Setting up pool5
I0926 18:15:35.699947  4344 net.cpp:129] Top shape: 128 256 6 6 (1179648)
I0926 18:15:35.699954  4344 net.cpp:137] Memory required for data: 1051768832
I0926 18:15:35.699960  4344 layer_factory.hpp:77] Creating layer fc6
I0926 18:15:35.699975  4344 net.cpp:84] Creating Layer fc6
I0926 18:15:35.699981  4344 net.cpp:406] fc6 <- pool5
I0926 18:15:35.699990  4344 net.cpp:380] fc6 -> fc6
I0926 18:15:36.194708  4344 net.cpp:122] Setting up fc6
I0926 18:15:36.194787  4344 net.cpp:129] Top shape: 128 4096 (524288)
I0926 18:15:36.194797  4344 net.cpp:137] Memory required for data: 1053865984
I0926 18:15:36.194818  4344 layer_factory.hpp:77] Creating layer relu6
I0926 18:15:36.194835  4344 net.cpp:84] Creating Layer relu6
I0926 18:15:36.194844  4344 net.cpp:406] relu6 <- fc6
I0926 18:15:36.194857  4344 net.cpp:367] relu6 -> fc6 (in-place)
I0926 18:15:36.195132  4344 net.cpp:122] Setting up relu6
I0926 18:15:36.195143  4344 net.cpp:129] Top shape: 128 4096 (524288)
I0926 18:15:36.195150  4344 net.cpp:137] Memory required for data: 1055963136
I0926 18:15:36.195158  4344 layer_factory.hpp:77] Creating layer drop6
I0926 18:15:36.195168  4344 net.cpp:84] Creating Layer drop6
I0926 18:15:36.195174  4344 net.cpp:406] drop6 <- fc6
I0926 18:15:36.195183  4344 net.cpp:367] drop6 -> fc6 (in-place)
I0926 18:15:36.195209  4344 net.cpp:122] Setting up drop6
I0926 18:15:36.195217  4344 net.cpp:129] Top shape: 128 4096 (524288)
I0926 18:15:36.195224  4344 net.cpp:137] Memory required for data: 1058060288
I0926 18:15:36.195230  4344 layer_factory.hpp:77] Creating layer fc7
I0926 18:15:36.195241  4344 net.cpp:84] Creating Layer fc7
I0926 18:15:36.195248  4344 net.cpp:406] fc7 <- fc6
I0926 18:15:36.195257  4344 net.cpp:380] fc7 -> fc7
I0926 18:15:36.416694  4344 net.cpp:122] Setting up fc7
I0926 18:15:36.416772  4344 net.cpp:129] Top shape: 128 4096 (524288)
I0926 18:15:36.416781  4344 net.cpp:137] Memory required for data: 1060157440
I0926 18:15:36.416801  4344 layer_factory.hpp:77] Creating layer relu7
I0926 18:15:36.416818  4344 net.cpp:84] Creating Layer relu7
I0926 18:15:36.416829  4344 net.cpp:406] relu7 <- fc7
I0926 18:15:36.416843  4344 net.cpp:367] relu7 -> fc7 (in-place)
I0926 18:15:36.417119  4344 net.cpp:122] Setting up relu7
I0926 18:15:36.417130  4344 net.cpp:129] Top shape: 128 4096 (524288)
I0926 18:15:36.417136  4344 net.cpp:137] Memory required for data: 1062254592
I0926 18:15:36.417145  4344 layer_factory.hpp:77] Creating layer drop7
I0926 18:15:36.417155  4344 net.cpp:84] Creating Layer drop7
I0926 18:15:36.417161  4344 net.cpp:406] drop7 <- fc7
I0926 18:15:36.417171  4344 net.cpp:367] drop7 -> fc7 (in-place)
I0926 18:15:36.417191  4344 net.cpp:122] Setting up drop7
I0926 18:15:36.417201  4344 net.cpp:129] Top shape: 128 4096 (524288)
I0926 18:15:36.417207  4344 net.cpp:137] Memory required for data: 1064351744
I0926 18:15:36.417212  4344 layer_factory.hpp:77] Creating layer my-fc8
I0926 18:15:36.417223  4344 net.cpp:84] Creating Layer my-fc8
I0926 18:15:36.417230  4344 net.cpp:406] my-fc8 <- fc7
I0926 18:15:36.417239  4344 net.cpp:380] my-fc8 -> my-fc8
I0926 18:15:36.983705  4344 net.cpp:122] Setting up my-fc8
I0926 18:15:36.983777  4344 net.cpp:129] Top shape: 128 10572 (1353216)
I0926 18:15:36.983798  4344 net.cpp:137] Memory required for data: 1069764608
I0926 18:15:36.983826  4344 layer_factory.hpp:77] Creating layer loss
I0926 18:15:36.983844  4344 net.cpp:84] Creating Layer loss
I0926 18:15:36.983852  4344 net.cpp:406] loss <- my-fc8
I0926 18:15:36.983863  4344 net.cpp:406] loss <- label
I0926 18:15:36.983875  4344 net.cpp:380] loss -> loss
I0926 18:15:36.983899  4344 layer_factory.hpp:77] Creating layer loss
…
I0926 18:15:36.990051  4344 solver.cpp:172] Creating test net (#0) specified by net file: ./train_val.prototxt
I0926 18:15:36.990097  4344 net.cpp:294] The NetState phase (1) differed from the phase (0) specified by a rule in layer data
I0926 18:15:36.990290  4344 net.cpp:51] Initializing net from parameters: 
name: "AlexNet"
state {
  phase: TEST
}
layer {
  name: "data"
  type: "Data"
  top: "data"
  top: "label"
  include {
    phase: TEST
  }
  data_param {
    source: "/home/hzzone/1tb/data/train_lmdb"
    batch_size: 1
    backend: LMDB
  }
}
layer {
  name: "conv1"
  type: "Convolution"
  bottom: "data"
  top: "conv1"
  param {
    lr_mult: 1
    decay_mult: 1
  }
  param {
    lr_mult: 2
    decay_mult: 0
  }
  convolution_param {
    num_output: 96
    kernel_size: 11
    stride: 4
    weight_filler {
      type: "gaussian"
      std: 0.01
    }
    bias_filler {
      type: "constant"
      value: 0
    }
  }
}
layer {
  name: "relu1"
  type: "ReLU"
  bottom: "conv1"
  top: "conv1"
}
layer {
  name: "norm1"
  type: "LRN"
  bottom: "conv1"
  top: "norm1"
  lrn_param {
    local_size: 5
    alpha: 0.0001
    beta: 0.75
  }
}
layer {
  name: "pool1"
  type: "Pooling"
  bottom: "norm1"
  top: "pool1"
  pooling_param {
    pool: MAX
    kernel_size: 3
    stride: 2
  }
}
layer {
  name: "conv2"
  type: "Convolution"
  bottom: "pool1"
  top: "conv2"
  param {
    lr_mult: 1
    decay_mult: 1
  }
  param {
    lr_mult: 2
    decay_mult: 0
  }
  convolution_param {
    num_output: 256
    pad: 2
    kernel_size: 5
    group: 2
    weight_filler {
      type: "gaussian"
      std: 0.01
    }
    bias_filler {
      type: "constant"
      value: 0.1
    }
  }
}
layer {
  name: "relu2"
  type: "ReLU"
  bottom: "conv2"
  top: "conv2"
}
layer {
  name: "norm2"
  type: "LRN"
  bottom: "conv2"
  top: "norm2"
  lrn_param {
    local_size: 5
    alpha: 0.0001
    beta: 0.75
  }
}
layer {
  name: "pool2"
  type: "Pooling"
  bottom: "norm2"
  top: "pool2"
  pooling_param {
    pool: MAX
    kernel_size: 3
    stride: 2
  }
}
layer {
  name: "conv3"
  type: "Convolution"
  bottom: "pool2"
  top: "conv3"
  param {
    lr_mult: 1
    decay_mult: 1
  }
  param {
    lr_mult: 2
    decay_mult: 0
  }
  convolution_param {
    num_output: 384
    pad: 1
    kernel_size: 3
    weight_filler {
      type: "gaussian"
      std: 0.01
    }
    bias_filler {
      type: "constant"
      value: 0
    }
  }
}
layer {
  name: "relu3"
  type: "ReLU"
  bottom: "conv3"
  top: "conv3"
}
layer {
  name: "conv4"
  type: "Convolution"
  bottom: "conv3"
  top: "conv4"
  param {
    lr_mult: 1
    decay_mult: 1
  }
  param {
    lr_mult: 2
    decay_mult: 0
  }
  convolution_param {
    num_output: 384
    pad: 1
    kernel_size: 3
    group: 2
    weight_filler {
      type: "gaussian"
      std: 0.01
    }
    bias_filler {
      type: "constant"
      value: 0.1
    }
  }
}
layer {
  name: "relu4"
  type: "ReLU"
  bottom: "conv4"
  top: "conv4"
}
layer {
  name: "conv5"
  type: "Convolution"
  bottom: "conv4"
  top: "conv5"
  param {
    lr_mult: 1
    decay_mult: 1
  }
  param {
    lr_mult: 2
    decay_mult: 0
  }
  convolution_param {
    num_output: 256
    pad: 1
    kernel_size: 3
    group: 2
    weight_filler {
      type: "gaussian"
      std: 0.01
    }
    bias_filler {
      type: "constant"
      value: 0.1
    }
  }
}
layer {
  name: "relu5"
  type: "ReLU"
  bottom: "conv5"
  top: "conv5"
}
layer {
  name: "pool5"
  type: "Pooling"
  bottom: "conv5"
  top: "pool5"
  pooling_param {
    pool: MAX
    kernel_size: 3
    stride: 2
  }
}
layer {
  name: "fc6"
  type: "InnerProduct"
  bottom: "pool5"
  top: "fc6"
  param {
    lr_mult: 1
    decay_mult: 1
  }
  param {
    lr_mult: 2
    decay_mult: 0
  }
  inner_product_param {
    num_output: 4096
    weight_filler {
      type: "gaussian"
      std: 0.005
    }
    bias_filler {
      type: "constant"
      value: 0.1
    }
  }
}
layer {
  name: "relu6"
  type: "ReLU"
  bottom: "fc6"
  top: "fc6"
}
layer {
  name: "drop6"
  type: "Dropout"
  bottom: "fc6"
  top: "fc6"
  dropout_param {
    dropout_ratio: 0.5
  }
}
layer {
  name: "fc7"
  type: "InnerProduct"
  bottom: "fc6"
  top: "fc7"
  param {
    lr_mult: 1
    decay_mult: 1
  }
  param {
    lr_mult: 2
    decay_mult: 0
  }
  inner_product_param {
    num_output: 4096
    weight_filler {
      type: "gaussian"
      std: 0.005
    }
    bias_filler {
      type: "constant"
      value: 0.1
    }
  }
}
layer {
  name: "relu7"
  type: "ReLU"
  bottom: "fc7"
  top: "fc7"
}
layer {
  name: "drop7"
  type: "Dropout"
  bottom: "fc7"
  top: "fc7"
  dropout_param {
    dropout_ratio: 0.5
  }
}
layer {
  name: "my-fc8"
  type: "InnerProduct"
  bottom: "fc7"
  top: "my-fc8"
  param {
    lr_mult: 1
    decay_mult: 1
  }
  param {
    lr_mult: 2
    decay_mult: 0
  }
  inner_product_param {
    num_output: 10572
    weight_filler {
      type: "gaussian"
      std: 0.01
    }
    bias_filler {
      type: "constant"
      value: 0
    }
  }
}
layer {
  name: "loss"
  type: "SoftmaxWithLoss"
  bottom: "my-fc8"
  bottom: "label"
  top: "loss"
}
I0926 18:15:36.990386  4344 layer_factory.hpp:77] Creating layer data
I0926 18:15:36.990476  4344 db_lmdb.cpp:35] Opened lmdb /home/hzzone/1tb/data/train_lmdb
I0926 18:15:36.990506  4344 net.cpp:84] Creating Layer data
I0926 18:15:36.990515  4344 net.cpp:380] data -> data
I0926 18:15:36.990527  4344 net.cpp:380] data -> label
I0926 18:15:36.990753  4344 data_layer.cpp:45] output data size: 1,3,227,227
I0926 18:15:36.993896  4344 net.cpp:122] Setting up data
I0926 18:15:36.993966  4344 net.cpp:129] Top shape: 1 3 227 227 (154587)
I0926 18:15:36.993993  4344 net.cpp:129] Top shape: 1 (1)
I0926 18:15:36.994000  4344 net.cpp:137] Memory required for data: 618352
I0926 18:15:36.994014  4344 layer_factory.hpp:77] Creating layer conv1
I0926 18:15:36.994041  4344 net.cpp:84] Creating Layer conv1
I0926 18:15:36.994051  4344 net.cpp:406] conv1 <- data
I0926 18:15:36.994066  4344 net.cpp:380] conv1 -> conv1
I0926 18:15:36.996096  4344 net.cpp:122] Setting up conv1
I0926 18:15:36.996142  4344 net.cpp:129] Top shape: 1 96 55 55 (290400)
I0926 18:15:36.996150  4344 net.cpp:137] Memory required for data: 1779952
I0926 18:15:36.996176  4344 layer_factory.hpp:77] Creating layer relu1
I0926 18:15:36.996193  4344 net.cpp:84] Creating Layer relu1
I0926 18:15:36.996202  4344 net.cpp:406] relu1 <- conv1
I0926 18:15:36.996214  4344 net.cpp:367] relu1 -> conv1 (in-place)
I0926 18:15:36.996500  4344 net.cpp:122] Setting up relu1
I0926 18:15:36.996527  4344 net.cpp:129] Top shape: 1 96 55 55 (290400)
I0926 18:15:36.996615  4344 net.cpp:137] Memory required for data: 2941552
I0926 18:15:36.996623  4344 layer_factory.hpp:77] Creating layer norm1
I0926 18:15:36.996636  4344 net.cpp:84] Creating Layer norm1
I0926 18:15:36.996646  4344 net.cpp:406] norm1 <- conv1
I0926 18:15:36.996662  4344 net.cpp:380] norm1 -> norm1
I0926 18:15:36.996994  4344 net.cpp:122] Setting up norm1
I0926 18:15:36.997009  4344 net.cpp:129] Top shape: 1 96 55 55 (290400)
I0926 18:15:36.997016  4344 net.cpp:137] Memory required for data: 4103152
I0926 18:15:36.997023  4344 layer_factory.hpp:77] Creating layer pool1
I0926 18:15:36.997037  4344 net.cpp:84] Creating Layer pool1
I0926 18:15:36.997045  4344 net.cpp:406] pool1 <- norm1
I0926 18:15:36.997054  4344 net.cpp:380] pool1 -> pool1
I0926 18:15:36.997102  4344 net.cpp:122] Setting up pool1
I0926 18:15:36.997114  4344 net.cpp:129] Top shape: 1 96 27 27 (69984)
I0926 18:15:36.997122  4344 net.cpp:137] Memory required for data: 4383088
I0926 18:15:36.997128  4344 layer_factory.hpp:77] Creating layer conv2
I0926 18:15:36.997144  4344 net.cpp:84] Creating Layer conv2
I0926 18:15:36.997151  4344 net.cpp:406] conv2 <- pool1
I0926 18:15:36.997162  4344 net.cpp:380] conv2 -> conv2
I0926 18:15:37.004945  4344 net.cpp:122] Setting up conv2
I0926 18:15:37.004994  4344 net.cpp:129] Top shape: 1 256 27 27 (186624)
I0926 18:15:37.005002  4344 net.cpp:137] Memory required for data: 5129584
I0926 18:15:37.005023  4344 layer_factory.hpp:77] Creating layer relu2
I0926 18:15:37.005039  4344 net.cpp:84] Creating Layer relu2
I0926 18:15:37.005048  4344 net.cpp:406] relu2 <- conv2
I0926 18:15:37.005059  4344 net.cpp:367] relu2 -> conv2 (in-place)
I0926 18:15:37.005254  4344 net.cpp:122] Setting up relu2
I0926 18:15:37.005264  4344 net.cpp:129] Top shape: 1 256 27 27 (186624)
I0926 18:15:37.005271  4344 net.cpp:137] Memory required for data: 5876080
I0926 18:15:37.005278  4344 layer_factory.hpp:77] Creating layer norm2
I0926 18:15:37.005290  4344 net.cpp:84] Creating Layer norm2
I0926 18:15:37.005296  4344 net.cpp:406] norm2 <- conv2
I0926 18:15:37.005306  4344 net.cpp:380] norm2 -> norm2
I0926 18:15:37.005527  4344 net.cpp:122] Setting up norm2
I0926 18:15:37.005539  4344 net.cpp:129] Top shape: 1 256 27 27 (186624)
I0926 18:15:37.005548  4344 net.cpp:137] Memory required for data: 6622576
I0926 18:15:37.005554  4344 layer_factory.hpp:77] Creating layer pool2
I0926 18:15:37.005568  4344 net.cpp:84] Creating Layer pool2
I0926 18:15:37.005574  4344 net.cpp:406] pool2 <- norm2
I0926 18:15:37.005583  4344 net.cpp:380] pool2 -> pool2
I0926 18:15:37.005625  4344 net.cpp:122] Setting up pool2
I0926 18:15:37.005637  4344 net.cpp:129] Top shape: 1 256 13 13 (43264)
I0926 18:15:37.005643  4344 net.cpp:137] Memory required for data: 6795632
I0926 18:15:37.005650  4344 layer_factory.hpp:77] Creating layer conv3
I0926 18:15:37.005666  4344 net.cpp:84] Creating Layer conv3
I0926 18:15:37.005672  4344 net.cpp:406] conv3 <- pool2
I0926 18:15:37.005681  4344 net.cpp:380] conv3 -> conv3
I0926 18:15:37.019685  4344 net.cpp:122] Setting up conv3
I0926 18:15:37.019757  4344 net.cpp:129] Top shape: 1 384 13 13 (64896)
I0926 18:15:37.019764  4344 net.cpp:137] Memory required for data: 7055216
I0926 18:15:37.019786  4344 layer_factory.hpp:77] Creating layer relu3
I0926 18:15:37.019804  4344 net.cpp:84] Creating Layer relu3
I0926 18:15:37.019811  4344 net.cpp:406] relu3 <- conv3
I0926 18:15:37.019824  4344 net.cpp:367] relu3 -> conv3 (in-place)
I0926 18:15:37.020309  4344 net.cpp:122] Setting up relu3
I0926 18:15:37.020324  4344 net.cpp:129] Top shape: 1 384 13 13 (64896)
I0926 18:15:37.020330  4344 net.cpp:137] Memory required for data: 7314800
I0926 18:15:37.020337  4344 layer_factory.hpp:77] Creating layer conv4
I0926 18:15:37.020354  4344 net.cpp:84] Creating Layer conv4
I0926 18:15:37.020360  4344 net.cpp:406] conv4 <- conv3
I0926 18:15:37.020370  4344 net.cpp:380] conv4 -> conv4
I0926 18:15:37.031956  4344 net.cpp:122] Setting up conv4
I0926 18:15:37.032007  4344 net.cpp:129] Top shape: 1 384 13 13 (64896)
I0926 18:15:37.032014  4344 net.cpp:137] Memory required for data: 7574384
I0926 18:15:37.032030  4344 layer_factory.hpp:77] Creating layer relu4
I0926 18:15:37.032045  4344 net.cpp:84] Creating Layer relu4
I0926 18:15:37.032053  4344 net.cpp:406] relu4 <- conv4
I0926 18:15:37.032068  4344 net.cpp:367] relu4 -> conv4 (in-place)
I0926 18:15:37.032588  4344 net.cpp:122] Setting up relu4
I0926 18:15:37.032603  4344 net.cpp:129] Top shape: 1 384 13 13 (64896)
I0926 18:15:37.032609  4344 net.cpp:137] Memory required for data: 7833968
I0926 18:15:37.032616  4344 layer_factory.hpp:77] Creating layer conv5
I0926 18:15:37.032634  4344 net.cpp:84] Creating Layer conv5
I0926 18:15:37.032640  4344 net.cpp:406] conv5 <- conv4
I0926 18:15:37.032652  4344 net.cpp:380] conv5 -> conv5
I0926 18:15:37.041805  4344 net.cpp:122] Setting up conv5
I0926 18:15:37.041857  4344 net.cpp:129] Top shape: 1 256 13 13 (43264)
I0926 18:15:37.041864  4344 net.cpp:137] Memory required for data: 8007024
I0926 18:15:37.041887  4344 layer_factory.hpp:77] Creating layer relu5
I0926 18:15:37.041904  4344 net.cpp:84] Creating Layer relu5
I0926 18:15:37.041913  4344 net.cpp:406] relu5 <- conv5
I0926 18:15:37.041924  4344 net.cpp:367] relu5 -> conv5 (in-place)
I0926 18:15:37.042413  4344 net.cpp:122] Setting up relu5
I0926 18:15:37.042426  4344 net.cpp:129] Top shape: 1 256 13 13 (43264)
I0926 18:15:37.042433  4344 net.cpp:137] Memory required for data: 8180080
I0926 18:15:37.042440  4344 layer_factory.hpp:77] Creating layer pool5
I0926 18:15:37.042453  4344 net.cpp:84] Creating Layer pool5
I0926 18:15:37.042460  4344 net.cpp:406] pool5 <- conv5
I0926 18:15:37.042469  4344 net.cpp:380] pool5 -> pool5
I0926 18:15:37.042521  4344 net.cpp:122] Setting up pool5
I0926 18:15:37.042532  4344 net.cpp:129] Top shape: 1 256 6 6 (9216)
I0926 18:15:37.042539  4344 net.cpp:137] Memory required for data: 8216944
I0926 18:15:37.042546  4344 layer_factory.hpp:77] Creating layer fc6
I0926 18:15:37.042562  4344 net.cpp:84] Creating Layer fc6
I0926 18:15:37.042569  4344 net.cpp:406] fc6 <- pool5
I0926 18:15:37.042578  4344 net.cpp:380] fc6 -> fc6
I0926 18:15:37.537698  4344 net.cpp:122] Setting up fc6
I0926 18:15:37.537770  4344 net.cpp:129] Top shape: 1 4096 (4096)
I0926 18:15:37.537782  4344 net.cpp:137] Memory required for data: 8233328
I0926 18:15:37.537802  4344 layer_factory.hpp:77] Creating layer relu6
I0926 18:15:37.537820  4344 net.cpp:84] Creating Layer relu6
I0926 18:15:37.537832  4344 net.cpp:406] relu6 <- fc6
I0926 18:15:37.537844  4344 net.cpp:367] relu6 -> fc6 (in-place)
I0926 18:15:37.538159  4344 net.cpp:122] Setting up relu6
I0926 18:15:37.538172  4344 net.cpp:129] Top shape: 1 4096 (4096)
I0926 18:15:37.538178  4344 net.cpp:137] Memory required for data: 8249712
I0926 18:15:37.538185  4344 layer_factory.hpp:77] Creating layer drop6
I0926 18:15:37.538197  4344 net.cpp:84] Creating Layer drop6
I0926 18:15:37.538204  4344 net.cpp:406] drop6 <- fc6
I0926 18:15:37.538213  4344 net.cpp:367] drop6 -> fc6 (in-place)
I0926 18:15:37.538242  4344 net.cpp:122] Setting up drop6
I0926 18:15:37.538264  4344 net.cpp:129] Top shape: 1 4096 (4096)
I0926 18:15:37.538281  4344 net.cpp:137] Memory required for data: 8266096
I0926 18:15:37.538288  4344 layer_factory.hpp:77] Creating layer fc7
I0926 18:15:37.538300  4344 net.cpp:84] Creating Layer fc7
I0926 18:15:37.538306  4344 net.cpp:406] fc7 <- fc6
I0926 18:15:37.538317  4344 net.cpp:380] fc7 -> fc7
I0926 18:15:37.759230  4344 net.cpp:122] Setting up fc7
I0926 18:15:37.759297  4344 net.cpp:129] Top shape: 1 4096 (4096)
I0926 18:15:37.759306  4344 net.cpp:137] Memory required for data: 8282480
I0926 18:15:37.759325  4344 layer_factory.hpp:77] Creating layer relu7
I0926 18:15:37.759346  4344 net.cpp:84] Creating Layer relu7
I0926 18:15:37.759356  4344 net.cpp:406] relu7 <- fc7
I0926 18:15:37.759369  4344 net.cpp:367] relu7 -> fc7 (in-place)
I0926 18:15:37.759672  4344 net.cpp:122] Setting up relu7
I0926 18:15:37.759683  4344 net.cpp:129] Top shape: 1 4096 (4096)
I0926 18:15:37.759690  4344 net.cpp:137] Memory required for data: 8298864
I0926 18:15:37.759697  4344 layer_factory.hpp:77] Creating layer drop7
I0926 18:15:37.759709  4344 net.cpp:84] Creating Layer drop7
I0926 18:15:37.759716  4344 net.cpp:406] drop7 <- fc7
I0926 18:15:37.759727  4344 net.cpp:367] drop7 -> fc7 (in-place)
I0926 18:15:37.759757  4344 net.cpp:122] Setting up drop7
I0926 18:15:37.759768  4344 net.cpp:129] Top shape: 1 4096 (4096)
I0926 18:15:37.759773  4344 net.cpp:137] Memory required for data: 8315248
I0926 18:15:37.759780  4344 layer_factory.hpp:77] Creating layer my-fc8
I0926 18:15:37.759793  4344 net.cpp:84] Creating Layer my-fc8
I0926 18:15:37.759799  4344 net.cpp:406] my-fc8 <- fc7
I0926 18:15:37.759811  4344 net.cpp:380] my-fc8 -> my-fc8
I0926 18:15:38.328609  4344 net.cpp:122] Setting up my-fc8
I0926 18:15:38.328678  4344 net.cpp:129] Top shape: 1 10572 (10572)
I0926 18:15:38.328686  4344 net.cpp:137] Memory required for data: 8357536
I0926 18:15:38.328706  4344 layer_factory.hpp:77] Creating layer loss
I0926 18:15:38.328722  4344 net.cpp:84] Creating Layer loss
I0926 18:15:38.328732  4344 net.cpp:406] loss <- my-fc8
I0926 18:15:38.328742  4344 net.cpp:406] loss <- label
I0926 18:15:38.328752  4344 net.cpp:380] loss -> loss
I0926 18:15:38.328768  4344 layer_factory.hpp:77] Creating layer loss
…
