…
net: "./train_val.prototxt"
train_state {
  level: 0
  stage: ""
}
I1008 23:10:26.845806 16704 solver.cpp:87] Creating training net from net file: ./train_val.prototxt
I1008 23:10:26.847391 16704 net.cpp:51] Initializing net from parameters: 
name: "CaffeNet"
state {
  phase: TRAIN
  level: 0
  stage: ""
}
layer {
  name: "data"
  type: "Data"
  top: "data"
  top: "label"
  include {
    phase: TRAIN
  }
  transform_param {
    mirror: true
    crop_size: 227
  }
  data_param {
    source: "/home/hzzone/1tb/data/siamese_train_lmdb"
    batch_size: 64
    backend: LMDB
  }
}
layer {
  name: "conv1"
  type: "Convolution"
  bottom: "data"
  top: "conv1"
  param {
    lr_mult: 1
    decay_mult: 1
  }
  param {
    lr_mult: 2
    decay_mult: 0
  }
  convolution_param {
    num_output: 96
    kernel_size: 11
    stride: 4
    weight_filler {
      type: "gaussian"
      std: 0.01
    }
    bias_filler {
      type: "constant"
      value: 0
    }
  }
}
layer {
  name: "relu1"
  type: "ReLU"
  bottom: "conv1"
  top: "conv1"
}
layer {
  name: "pool1"
  type: "Pooling"
  bottom: "conv1"
  top: "pool1"
  pooling_param {
    pool: MAX
    kernel_size: 3
    stride: 2
  }
}
layer {
  name: "norm1"
  type: "LRN"
  bottom: "pool1"
  top: "norm1"
  lrn_param {
    local_size: 5
    alpha: 0.0001
    beta: 0.75
  }
}
layer {
  name: "conv2"
  type: "Convolution"
  bottom: "norm1"
  top: "conv2"
  param {
    lr_mult: 1
    decay_mult: 1
  }
  param {
    lr_mult: 2
    decay_mult: 0
  }
  convolution_param {
    num_output: 256
    pad: 2
    kernel_size: 5
    group: 2
    weight_filler {
      type: "gaussian"
      std: 0.01
    }
    bias_filler {
      type: "constant"
      value: 1
    }
  }
}
layer {
  name: "relu2"
  type: "ReLU"
  bottom: "conv2"
  top: "conv2"
}
layer {
  name: "pool2"
  type: "Pooling"
  bottom: "conv2"
  top: "pool2"
  pooling_param {
    pool: MAX
    kernel_size: 3
    stride: 2
  }
}
layer {
  name: "norm2"
  type: "LRN"
  bottom: "pool2"
  top: "norm2"
  lrn_param {
    local_size: 5
    alpha: 0.0001
    beta: 0.75
  }
}
layer {
  name: "conv3"
  type: "Convolution"
  bottom: "norm2"
  top: "conv3"
  param {
    lr_mult: 1
    decay_mult: 1
  }
  param {
    lr_mult: 2
    decay_mult: 0
  }
  convolution_param {
    num_output: 384
    pad: 1
    kernel_size: 3
    weight_filler {
      type: "gaussian"
      std: 0.01
    }
    bias_filler {
      type: "constant"
      value: 0
    }
  }
}
layer {
  name: "relu3"
  type: "ReLU"
  bottom: "conv3"
  top: "conv3"
}
layer {
  name: "conv4"
  type: "Convolution"
  bottom: "conv3"
  top: "conv4"
  param {
    lr_mult: 1
    decay_mult: 1
  }
  param {
    lr_mult: 2
    decay_mult: 0
  }
  convolution_param {
    num_output: 384
    pad: 1
    kernel_size: 3
    group: 2
    weight_filler {
      type: "gaussian"
      std: 0.01
    }
    bias_filler {
      type: "constant"
      value: 1
    }
  }
}
layer {
  name: "relu4"
  type: "ReLU"
  bottom: "conv4"
  top: "conv4"
}
layer {
  name: "conv5"
  type: "Convolution"
  bottom: "conv4"
  top: "conv5"
  param {
    lr_mult: 1
    decay_mult: 1
  }
  param {
    lr_mult: 2
    decay_mult: 0
  }
  convolution_param {
    num_output: 256
    pad: 1
    kernel_size: 3
    group: 2
    weight_filler {
      type: "gaussian"
      std: 0.01
    }
    bias_filler {
      type: "constant"
      value: 1
    }
  }
}
layer {
  name: "relu5"
  type: "ReLU"
  bottom: "conv5"
  top: "conv5"
}
layer {
  name: "pool5"
  type: "Pooling"
  bottom: "conv5"
  top: "pool5"
  pooling_param {
    pool: MAX
    kernel_size: 3
    stride: 2
  }
}
layer {
  name: "fc6"
  type: "InnerProduct"
  bottom: "pool5"
  top: "fc6"
  param {
    lr_mult: 1
    decay_mult: 1
  }
  param {
    lr_mult: 2
    decay_mult: 0
  }
  inner_product_param {
    num_output: 4096
    weight_filler {
      type: "gaussian"
      std: 0.005
    }
    bias_filler {
      type: "constant"
      value: 1
    }
  }
}
layer {
  name: "relu6"
  type: "ReLU"
  bottom: "fc6"
  top: "fc6"
}
layer {
  name: "drop6"
  type: "Dropout"
  bottom: "fc6"
  top: "fc6"
  dropout_param {
    dropout_ratio: 0.5
  }
}
layer {
  name: "fc7"
  type: "InnerProduct"
  bottom: "fc6"
  top: "fc7"
  param {
    lr_mult: 1
    decay_mult: 1
  }
  param {
    lr_mult: 2
    decay_mult: 0
  }
  inner_product_param {
    num_output: 4096
    weight_filler {
      type: "gaussian"
      std: 0.005
    }
    bias_filler {
      type: "constant"
      value: 1
    }
  }
}
layer {
  name: "relu7"
  type: "ReLU"
  bottom: "fc7"
  top: "fc7"
}
layer {
  name: "drop7"
  type: "Dropout"
  bottom: "fc7"
  top: "fc7"
  dropout_param {
    dropout_ratio: 0.5
  }
}
layer {
  name: "fc8"
  type: "InnerProduct"
  bottom: "fc7"
  top: "fc8"
  param {
    lr_mult: 1
    decay_mult: 1
  }
  param {
    lr_mult: 2
    decay_mult: 0
  }
  inner_product_param {
    num_output: 2
    weight_filler {
      type: "gaussian"
      std: 0.01
    }
    bias_filler {
      type: "constant"
      value: 0
    }
  }
}
layer {
  name: "loss"
  type: "SoftmaxWithLoss"
  bottom: "fc8"
  bottom: "label"
  top: "loss"
}
I1008 23:10:26.847646 16704 layer_factory.hpp:77] Creating layer data
I1008 23:10:26.847887 16704 db_lmdb.cpp:35] Opened lmdb /home/hzzone/1tb/data/siamese_train_lmdb
I1008 23:10:26.847937 16704 net.cpp:84] Creating Layer data
I1008 23:10:26.847956 16704 net.cpp:380] data -> data
I1008 23:10:26.848004 16704 net.cpp:380] data -> label
I1008 23:10:26.855836 16704 data_layer.cpp:45] output data size: 64,3,227,227
I1008 23:10:26.996053 16704 net.cpp:122] Setting up data
I1008 23:10:26.996103 16704 net.cpp:129] Top shape: 64 3 227 227 (9893568)
I1008 23:10:26.996110 16704 net.cpp:129] Top shape: 64 (64)
I1008 23:10:26.996115 16704 net.cpp:137] Memory required for data: 39574528
I1008 23:10:26.996130 16704 layer_factory.hpp:77] Creating layer conv1
I1008 23:10:26.996412 16704 net.cpp:84] Creating Layer conv1
I1008 23:10:26.996423 16704 net.cpp:406] conv1 <- data
I1008 23:10:26.996443 16704 net.cpp:380] conv1 -> conv1
I1008 23:10:27.439992 16704 net.cpp:122] Setting up conv1
I1008 23:10:27.440035 16704 net.cpp:129] Top shape: 64 96 55 55 (18585600)
I1008 23:10:27.440042 16704 net.cpp:137] Memory required for data: 113916928
I1008 23:10:27.440080 16704 layer_factory.hpp:77] Creating layer relu1
I1008 23:10:27.440130 16704 net.cpp:84] Creating Layer relu1
I1008 23:10:27.440138 16704 net.cpp:406] relu1 <- conv1
I1008 23:10:27.440148 16704 net.cpp:367] relu1 -> conv1 (in-place)
I1008 23:10:27.440501 16704 net.cpp:122] Setting up relu1
I1008 23:10:27.440515 16704 net.cpp:129] Top shape: 64 96 55 55 (18585600)
I1008 23:10:27.440520 16704 net.cpp:137] Memory required for data: 188259328
I1008 23:10:27.440524 16704 layer_factory.hpp:77] Creating layer pool1
I1008 23:10:27.440533 16704 net.cpp:84] Creating Layer pool1
I1008 23:10:27.440539 16704 net.cpp:406] pool1 <- conv1
I1008 23:10:27.440547 16704 net.cpp:380] pool1 -> pool1
I1008 23:10:27.440626 16704 net.cpp:122] Setting up pool1
I1008 23:10:27.440637 16704 net.cpp:129] Top shape: 64 96 27 27 (4478976)
I1008 23:10:27.440642 16704 net.cpp:137] Memory required for data: 206175232
I1008 23:10:27.440646 16704 layer_factory.hpp:77] Creating layer norm1
I1008 23:10:27.440660 16704 net.cpp:84] Creating Layer norm1
I1008 23:10:27.440665 16704 net.cpp:406] norm1 <- pool1
I1008 23:10:27.440672 16704 net.cpp:380] norm1 -> norm1
I1008 23:10:27.440927 16704 net.cpp:122] Setting up norm1
I1008 23:10:27.440938 16704 net.cpp:129] Top shape: 64 96 27 27 (4478976)
I1008 23:10:27.440943 16704 net.cpp:137] Memory required for data: 224091136
I1008 23:10:27.440948 16704 layer_factory.hpp:77] Creating layer conv2
I1008 23:10:27.440963 16704 net.cpp:84] Creating Layer conv2
I1008 23:10:27.440968 16704 net.cpp:406] conv2 <- norm1
I1008 23:10:27.440997 16704 net.cpp:380] conv2 -> conv2
I1008 23:10:27.450356 16704 net.cpp:122] Setting up conv2
I1008 23:10:27.450420 16704 net.cpp:129] Top shape: 64 256 27 27 (11943936)
I1008 23:10:27.450428 16704 net.cpp:137] Memory required for data: 271866880
I1008 23:10:27.450464 16704 layer_factory.hpp:77] Creating layer relu2
I1008 23:10:27.450487 16704 net.cpp:84] Creating Layer relu2
I1008 23:10:27.450496 16704 net.cpp:406] relu2 <- conv2
I1008 23:10:27.450508 16704 net.cpp:367] relu2 -> conv2 (in-place)
I1008 23:10:27.450819 16704 net.cpp:122] Setting up relu2
I1008 23:10:27.450830 16704 net.cpp:129] Top shape: 64 256 27 27 (11943936)
I1008 23:10:27.450835 16704 net.cpp:137] Memory required for data: 319642624
I1008 23:10:27.450841 16704 layer_factory.hpp:77] Creating layer pool2
I1008 23:10:27.450852 16704 net.cpp:84] Creating Layer pool2
I1008 23:10:27.450856 16704 net.cpp:406] pool2 <- conv2
I1008 23:10:27.450865 16704 net.cpp:380] pool2 -> pool2
I1008 23:10:27.450939 16704 net.cpp:122] Setting up pool2
I1008 23:10:27.450954 16704 net.cpp:129] Top shape: 64 256 13 13 (2768896)
I1008 23:10:27.450958 16704 net.cpp:137] Memory required for data: 330718208
I1008 23:10:27.450963 16704 layer_factory.hpp:77] Creating layer norm2
I1008 23:10:27.450978 16704 net.cpp:84] Creating Layer norm2
I1008 23:10:27.450983 16704 net.cpp:406] norm2 <- pool2
I1008 23:10:27.450990 16704 net.cpp:380] norm2 -> norm2
I1008 23:10:27.451838 16704 net.cpp:122] Setting up norm2
I1008 23:10:27.451858 16704 net.cpp:129] Top shape: 64 256 13 13 (2768896)
I1008 23:10:27.451863 16704 net.cpp:137] Memory required for data: 341793792
I1008 23:10:27.451870 16704 layer_factory.hpp:77] Creating layer conv3
I1008 23:10:27.451891 16704 net.cpp:84] Creating Layer conv3
I1008 23:10:27.451897 16704 net.cpp:406] conv3 <- norm2
I1008 23:10:27.451910 16704 net.cpp:380] conv3 -> conv3
I1008 23:10:27.468482 16704 net.cpp:122] Setting up conv3
I1008 23:10:27.468551 16704 net.cpp:129] Top shape: 64 384 13 13 (4153344)
I1008 23:10:27.468557 16704 net.cpp:137] Memory required for data: 358407168
I1008 23:10:27.468585 16704 layer_factory.hpp:77] Creating layer relu3
I1008 23:10:27.468600 16704 net.cpp:84] Creating Layer relu3
I1008 23:10:27.468613 16704 net.cpp:406] relu3 <- conv3
I1008 23:10:27.468624 16704 net.cpp:367] relu3 -> conv3 (in-place)
I1008 23:10:27.469513 16704 net.cpp:122] Setting up relu3
I1008 23:10:27.469586 16704 net.cpp:129] Top shape: 64 384 13 13 (4153344)
I1008 23:10:27.469599 16704 net.cpp:137] Memory required for data: 375020544
I1008 23:10:27.469617 16704 layer_factory.hpp:77] Creating layer conv4
I1008 23:10:27.469661 16704 net.cpp:84] Creating Layer conv4
I1008 23:10:27.469677 16704 net.cpp:406] conv4 <- conv3
I1008 23:10:27.469702 16704 net.cpp:380] conv4 -> conv4
I1008 23:10:27.482125 16704 net.cpp:122] Setting up conv4
I1008 23:10:27.482167 16704 net.cpp:129] Top shape: 64 384 13 13 (4153344)
I1008 23:10:27.482172 16704 net.cpp:137] Memory required for data: 391633920
I1008 23:10:27.482187 16704 layer_factory.hpp:77] Creating layer relu4
I1008 23:10:27.482201 16704 net.cpp:84] Creating Layer relu4
I1008 23:10:27.482208 16704 net.cpp:406] relu4 <- conv4
I1008 23:10:27.482218 16704 net.cpp:367] relu4 -> conv4 (in-place)
I1008 23:10:27.482815 16704 net.cpp:122] Setting up relu4
I1008 23:10:27.482833 16704 net.cpp:129] Top shape: 64 384 13 13 (4153344)
I1008 23:10:27.482838 16704 net.cpp:137] Memory required for data: 408247296
I1008 23:10:27.482843 16704 layer_factory.hpp:77] Creating layer conv5
I1008 23:10:27.482859 16704 net.cpp:84] Creating Layer conv5
I1008 23:10:27.482864 16704 net.cpp:406] conv5 <- conv4
I1008 23:10:27.482877 16704 net.cpp:380] conv5 -> conv5
I1008 23:10:27.496747 16704 net.cpp:122] Setting up conv5
I1008 23:10:27.496840 16704 net.cpp:129] Top shape: 64 256 13 13 (2768896)
I1008 23:10:27.496851 16704 net.cpp:137] Memory required for data: 419322880
I1008 23:10:27.496899 16704 layer_factory.hpp:77] Creating layer relu5
I1008 23:10:27.496935 16704 net.cpp:84] Creating Layer relu5
I1008 23:10:27.497020 16704 net.cpp:406] relu5 <- conv5
I1008 23:10:27.497045 16704 net.cpp:367] relu5 -> conv5 (in-place)
I1008 23:10:27.497638 16704 net.cpp:122] Setting up relu5
I1008 23:10:27.497706 16704 net.cpp:129] Top shape: 64 256 13 13 (2768896)
I1008 23:10:27.497726 16704 net.cpp:137] Memory required for data: 430398464
I1008 23:10:27.497740 16704 layer_factory.hpp:77] Creating layer pool5
I1008 23:10:27.497771 16704 net.cpp:84] Creating Layer pool5
I1008 23:10:27.497787 16704 net.cpp:406] pool5 <- conv5
I1008 23:10:27.497814 16704 net.cpp:380] pool5 -> pool5
I1008 23:10:27.497975 16704 net.cpp:122] Setting up pool5
I1008 23:10:27.497999 16704 net.cpp:129] Top shape: 64 256 6 6 (589824)
I1008 23:10:27.498013 16704 net.cpp:137] Memory required for data: 432757760
I1008 23:10:27.498021 16704 layer_factory.hpp:77] Creating layer fc6
I1008 23:10:27.498055 16704 net.cpp:84] Creating Layer fc6
I1008 23:10:27.498069 16704 net.cpp:406] fc6 <- pool5
I1008 23:10:27.498085 16704 net.cpp:380] fc6 -> fc6
I1008 23:10:28.023404 16704 net.cpp:122] Setting up fc6
I1008 23:10:28.023453 16704 net.cpp:129] Top shape: 64 4096 (262144)
I1008 23:10:28.023459 16704 net.cpp:137] Memory required for data: 433806336
I1008 23:10:28.023474 16704 layer_factory.hpp:77] Creating layer relu6
I1008 23:10:28.023488 16704 net.cpp:84] Creating Layer relu6
I1008 23:10:28.023494 16704 net.cpp:406] relu6 <- fc6
I1008 23:10:28.023504 16704 net.cpp:367] relu6 -> fc6 (in-place)
I1008 23:10:28.023775 16704 net.cpp:122] Setting up relu6
I1008 23:10:28.023787 16704 net.cpp:129] Top shape: 64 4096 (262144)
I1008 23:10:28.023792 16704 net.cpp:137] Memory required for data: 434854912
I1008 23:10:28.023795 16704 layer_factory.hpp:77] Creating layer drop6
I1008 23:10:28.023803 16704 net.cpp:84] Creating Layer drop6
I1008 23:10:28.023808 16704 net.cpp:406] drop6 <- fc6
I1008 23:10:28.023813 16704 net.cpp:367] drop6 -> fc6 (in-place)
I1008 23:10:28.023841 16704 net.cpp:122] Setting up drop6
I1008 23:10:28.023847 16704 net.cpp:129] Top shape: 64 4096 (262144)
I1008 23:10:28.023851 16704 net.cpp:137] Memory required for data: 435903488
I1008 23:10:28.023854 16704 layer_factory.hpp:77] Creating layer fc7
I1008 23:10:28.023864 16704 net.cpp:84] Creating Layer fc7
I1008 23:10:28.023869 16704 net.cpp:406] fc7 <- fc6
I1008 23:10:28.023875 16704 net.cpp:380] fc7 -> fc7
I1008 23:10:28.250061 16704 net.cpp:122] Setting up fc7
I1008 23:10:28.250105 16704 net.cpp:129] Top shape: 64 4096 (262144)
I1008 23:10:28.250114 16704 net.cpp:137] Memory required for data: 436952064
I1008 23:10:28.250133 16704 layer_factory.hpp:77] Creating layer relu7
I1008 23:10:28.250146 16704 net.cpp:84] Creating Layer relu7
I1008 23:10:28.250152 16704 net.cpp:406] relu7 <- fc7
I1008 23:10:28.250164 16704 net.cpp:367] relu7 -> fc7 (in-place)
I1008 23:10:28.250445 16704 net.cpp:122] Setting up relu7
I1008 23:10:28.250457 16704 net.cpp:129] Top shape: 64 4096 (262144)
I1008 23:10:28.250460 16704 net.cpp:137] Memory required for data: 438000640
I1008 23:10:28.250464 16704 layer_factory.hpp:77] Creating layer drop7
I1008 23:10:28.250473 16704 net.cpp:84] Creating Layer drop7
I1008 23:10:28.250476 16704 net.cpp:406] drop7 <- fc7
I1008 23:10:28.250483 16704 net.cpp:367] drop7 -> fc7 (in-place)
I1008 23:10:28.250506 16704 net.cpp:122] Setting up drop7
I1008 23:10:28.250512 16704 net.cpp:129] Top shape: 64 4096 (262144)
I1008 23:10:28.250516 16704 net.cpp:137] Memory required for data: 439049216
I1008 23:10:28.250520 16704 layer_factory.hpp:77] Creating layer fc8
I1008 23:10:28.250530 16704 net.cpp:84] Creating Layer fc8
I1008 23:10:28.250533 16704 net.cpp:406] fc8 <- fc7
I1008 23:10:28.250540 16704 net.cpp:380] fc8 -> fc8
I1008 23:10:28.252106 16704 net.cpp:122] Setting up fc8
I1008 23:10:28.252144 16704 net.cpp:129] Top shape: 64 2 (128)
I1008 23:10:28.252148 16704 net.cpp:137] Memory required for data: 439049728
I1008 23:10:28.252162 16704 layer_factory.hpp:77] Creating layer loss
I1008 23:10:28.252176 16704 net.cpp:84] Creating Layer loss
I1008 23:10:28.252180 16704 net.cpp:406] loss <- fc8
I1008 23:10:28.252188 16704 net.cpp:406] loss <- label
I1008 23:10:28.252233 16704 net.cpp:380] loss -> loss
I1008 23:10:28.252279 16704 layer_factory.hpp:77] Creating layer loss
…
