…
net: "./train_val.prototxt"
train_state {
  level: 0
  stage: ""
}
I1010 22:05:49.550041 14913 solver.cpp:87] Creating training net from net file: ./train_val.prototxt
I1010 22:05:49.551012 14913 net.cpp:51] Initializing net from parameters: 
name: "CaffeNet"
state {
  phase: TRAIN
  level: 0
  stage: ""
}
layer {
  name: "data"
  type: "Data"
  top: "data"
  top: "label"
  include {
    phase: TRAIN
  }
  transform_param {
    mirror: true
    crop_size: 227
  }
  data_param {
    source: "/home/hzzone/1tb/data/siamese_train_lmdb"
    batch_size: 64
    backend: LMDB
  }
}
layer {
  name: "conv1"
  type: "Convolution"
  bottom: "data"
  top: "conv1"
  param {
    lr_mult: 1
    decay_mult: 1
  }
  param {
    lr_mult: 2
    decay_mult: 0
  }
  convolution_param {
    num_output: 96
    kernel_size: 11
    stride: 4
    weight_filler {
      type: "gaussian"
      std: 0.01
    }
    bias_filler {
      type: "constant"
      value: 0
    }
  }
}
layer {
  name: "relu1"
  type: "ReLU"
  bottom: "conv1"
  top: "conv1"
}
layer {
  name: "pool1"
  type: "Pooling"
  bottom: "conv1"
  top: "pool1"
  pooling_param {
    pool: MAX
    kernel_size: 3
    stride: 2
  }
}
layer {
  name: "norm1"
  type: "LRN"
  bottom: "pool1"
  top: "norm1"
  lrn_param {
    local_size: 5
    alpha: 0.0001
    beta: 0.75
  }
}
layer {
  name: "conv2"
  type: "Convolution"
  bottom: "norm1"
  top: "conv2"
  param {
    lr_mult: 1
    decay_mult: 1
  }
  param {
    lr_mult: 2
    decay_mult: 0
  }
  convolution_param {
    num_output: 256
    pad: 2
    kernel_size: 5
    group: 2
    weight_filler {
      type: "gaussian"
      std: 0.01
    }
    bias_filler {
      type: "constant"
      value: 1
    }
  }
}
layer {
  name: "relu2"
  type: "ReLU"
  bottom: "conv2"
  top: "conv2"
}
layer {
  name: "pool2"
  type: "Pooling"
  bottom: "conv2"
  top: "pool2"
  pooling_param {
    pool: MAX
    kernel_size: 3
    stride: 2
  }
}
layer {
  name: "norm2"
  type: "LRN"
  bottom: "pool2"
  top: "norm2"
  lrn_param {
    local_size: 5
    alpha: 0.0001
    beta: 0.75
  }
}
layer {
  name: "conv3"
  type: "Convolution"
  bottom: "norm2"
  top: "conv3"
  param {
    lr_mult: 1
    decay_mult: 1
  }
  param {
    lr_mult: 2
    decay_mult: 0
  }
  convolution_param {
    num_output: 384
    pad: 1
    kernel_size: 3
    weight_filler {
      type: "gaussian"
      std: 0.01
    }
    bias_filler {
      type: "constant"
      value: 0
    }
  }
}
layer {
  name: "relu3"
  type: "ReLU"
  bottom: "conv3"
  top: "conv3"
}
layer {
  name: "conv4"
  type: "Convolution"
  bottom: "conv3"
  top: "conv4"
  param {
    lr_mult: 1
    decay_mult: 1
  }
  param {
    lr_mult: 2
    decay_mult: 0
  }
  convolution_param {
    num_output: 384
    pad: 1
    kernel_size: 3
    group: 2
    weight_filler {
      type: "gaussian"
      std: 0.01
    }
    bias_filler {
      type: "constant"
      value: 1
    }
  }
}
layer {
  name: "relu4"
  type: "ReLU"
  bottom: "conv4"
  top: "conv4"
}
layer {
  name: "conv5"
  type: "Convolution"
  bottom: "conv4"
  top: "conv5"
  param {
    lr_mult: 1
    decay_mult: 1
  }
  param {
    lr_mult: 2
    decay_mult: 0
  }
  convolution_param {
    num_output: 256
    pad: 1
    kernel_size: 3
    group: 2
    weight_filler {
      type: "gaussian"
      std: 0.01
    }
    bias_filler {
      type: "constant"
      value: 1
    }
  }
}
layer {
  name: "relu5"
  type: "ReLU"
  bottom: "conv5"
  top: "conv5"
}
layer {
  name: "pool5"
  type: "Pooling"
  bottom: "conv5"
  top: "pool5"
  pooling_param {
    pool: MAX
    kernel_size: 3
    stride: 2
  }
}
layer {
  name: "fc6"
  type: "InnerProduct"
  bottom: "pool5"
  top: "fc6"
  param {
    lr_mult: 1
    decay_mult: 1
  }
  param {
    lr_mult: 2
    decay_mult: 0
  }
  inner_product_param {
    num_output: 4096
    weight_filler {
      type: "gaussian"
      std: 0.005
    }
    bias_filler {
      type: "constant"
      value: 1
    }
  }
}
layer {
  name: "relu6"
  type: "ReLU"
  bottom: "fc6"
  top: "fc6"
}
layer {
  name: "drop6"
  type: "Dropout"
  bottom: "fc6"
  top: "fc6"
  dropout_param {
    dropout_ratio: 0.5
  }
}
layer {
  name: "fc7"
  type: "InnerProduct"
  bottom: "fc6"
  top: "fc7"
  param {
    lr_mult: 1
    decay_mult: 1
  }
  param {
    lr_mult: 2
    decay_mult: 0
  }
  inner_product_param {
    num_output: 4096
    weight_filler {
      type: "gaussian"
      std: 0.005
    }
    bias_filler {
      type: "constant"
      value: 1
    }
  }
}
layer {
  name: "relu7"
  type: "ReLU"
  bottom: "fc7"
  top: "fc7"
}
layer {
  name: "drop7"
  type: "Dropout"
  bottom: "fc7"
  top: "fc7"
  dropout_param {
    dropout_ratio: 0.5
  }
}
layer {
  name: "fc8"
  type: "InnerProduct"
  bottom: "fc7"
  top: "fc8"
  param {
    lr_mult: 1
    decay_mult: 1
  }
  param {
    lr_mult: 2
    decay_mult: 0
  }
  inner_product_param {
    num_output: 2
    weight_filler {
      type: "gaussian"
      std: 0.01
    }
    bias_filler {
      type: "constant"
      value: 0
    }
  }
}
layer {
  name: "loss"
  type: "SoftmaxWithLoss"
  bottom: "fc8"
  bottom: "label"
  top: "loss"
}
I1010 22:05:49.551141 14913 layer_factory.hpp:77] Creating layer data
I1010 22:05:49.551290 14913 db_lmdb.cpp:35] Opened lmdb /home/hzzone/1tb/data/siamese_train_lmdb
I1010 22:05:49.551322 14913 net.cpp:84] Creating Layer data
I1010 22:05:49.551334 14913 net.cpp:380] data -> data
I1010 22:05:49.551359 14913 net.cpp:380] data -> label
I1010 22:05:49.556401 14913 data_layer.cpp:45] output data size: 64,3,227,227
I1010 22:05:49.669042 14913 net.cpp:122] Setting up data
I1010 22:05:49.669085 14913 net.cpp:129] Top shape: 64 3 227 227 (9893568)
I1010 22:05:49.669092 14913 net.cpp:129] Top shape: 64 (64)
I1010 22:05:49.669097 14913 net.cpp:137] Memory required for data: 39574528
I1010 22:05:49.669114 14913 layer_factory.hpp:77] Creating layer conv1
I1010 22:05:49.669150 14913 net.cpp:84] Creating Layer conv1
I1010 22:05:49.669178 14913 net.cpp:406] conv1 <- data
I1010 22:05:49.669212 14913 net.cpp:380] conv1 -> conv1
I1010 22:05:50.027611 14913 net.cpp:122] Setting up conv1
I1010 22:05:50.027667 14913 net.cpp:129] Top shape: 64 96 55 55 (18585600)
I1010 22:05:50.027673 14913 net.cpp:137] Memory required for data: 113916928
I1010 22:05:50.027721 14913 layer_factory.hpp:77] Creating layer relu1
I1010 22:05:50.027745 14913 net.cpp:84] Creating Layer relu1
I1010 22:05:50.027755 14913 net.cpp:406] relu1 <- conv1
I1010 22:05:50.027767 14913 net.cpp:367] relu1 -> conv1 (in-place)
I1010 22:05:50.028082 14913 net.cpp:122] Setting up relu1
I1010 22:05:50.028095 14913 net.cpp:129] Top shape: 64 96 55 55 (18585600)
I1010 22:05:50.028098 14913 net.cpp:137] Memory required for data: 188259328
I1010 22:05:50.028103 14913 layer_factory.hpp:77] Creating layer pool1
I1010 22:05:50.028113 14913 net.cpp:84] Creating Layer pool1
I1010 22:05:50.028118 14913 net.cpp:406] pool1 <- conv1
I1010 22:05:50.028126 14913 net.cpp:380] pool1 -> pool1
I1010 22:05:50.028193 14913 net.cpp:122] Setting up pool1
I1010 22:05:50.028201 14913 net.cpp:129] Top shape: 64 96 27 27 (4478976)
I1010 22:05:50.028206 14913 net.cpp:137] Memory required for data: 206175232
I1010 22:05:50.028210 14913 layer_factory.hpp:77] Creating layer norm1
I1010 22:05:50.028224 14913 net.cpp:84] Creating Layer norm1
I1010 22:05:50.028230 14913 net.cpp:406] norm1 <- pool1
I1010 22:05:50.028237 14913 net.cpp:380] norm1 -> norm1
I1010 22:05:50.028456 14913 net.cpp:122] Setting up norm1
I1010 22:05:50.028465 14913 net.cpp:129] Top shape: 64 96 27 27 (4478976)
I1010 22:05:50.028470 14913 net.cpp:137] Memory required for data: 224091136
I1010 22:05:50.028475 14913 layer_factory.hpp:77] Creating layer conv2
I1010 22:05:50.028491 14913 net.cpp:84] Creating Layer conv2
I1010 22:05:50.028496 14913 net.cpp:406] conv2 <- norm1
I1010 22:05:50.028527 14913 net.cpp:380] conv2 -> conv2
I1010 22:05:50.037745 14913 net.cpp:122] Setting up conv2
I1010 22:05:50.037811 14913 net.cpp:129] Top shape: 64 256 27 27 (11943936)
I1010 22:05:50.037817 14913 net.cpp:137] Memory required for data: 271866880
I1010 22:05:50.037850 14913 layer_factory.hpp:77] Creating layer relu2
I1010 22:05:50.037869 14913 net.cpp:84] Creating Layer relu2
I1010 22:05:50.037878 14913 net.cpp:406] relu2 <- conv2
I1010 22:05:50.037894 14913 net.cpp:367] relu2 -> conv2 (in-place)
I1010 22:05:50.038259 14913 net.cpp:122] Setting up relu2
I1010 22:05:50.038269 14913 net.cpp:129] Top shape: 64 256 27 27 (11943936)
I1010 22:05:50.038275 14913 net.cpp:137] Memory required for data: 319642624
I1010 22:05:50.038280 14913 layer_factory.hpp:77] Creating layer pool2
I1010 22:05:50.038290 14913 net.cpp:84] Creating Layer pool2
I1010 22:05:50.038295 14913 net.cpp:406] pool2 <- conv2
I1010 22:05:50.038305 14913 net.cpp:380] pool2 -> pool2
I1010 22:05:50.038379 14913 net.cpp:122] Setting up pool2
I1010 22:05:50.038391 14913 net.cpp:129] Top shape: 64 256 13 13 (2768896)
I1010 22:05:50.038396 14913 net.cpp:137] Memory required for data: 330718208
I1010 22:05:50.038401 14913 layer_factory.hpp:77] Creating layer norm2
I1010 22:05:50.038419 14913 net.cpp:84] Creating Layer norm2
I1010 22:05:50.038424 14913 net.cpp:406] norm2 <- pool2
I1010 22:05:50.038431 14913 net.cpp:380] norm2 -> norm2
I1010 22:05:50.039163 14913 net.cpp:122] Setting up norm2
I1010 22:05:50.039178 14913 net.cpp:129] Top shape: 64 256 13 13 (2768896)
I1010 22:05:50.039183 14913 net.cpp:137] Memory required for data: 341793792
I1010 22:05:50.039189 14913 layer_factory.hpp:77] Creating layer conv3
I1010 22:05:50.039211 14913 net.cpp:84] Creating Layer conv3
I1010 22:05:50.039216 14913 net.cpp:406] conv3 <- norm2
I1010 22:05:50.039228 14913 net.cpp:380] conv3 -> conv3
I1010 22:05:50.054431 14913 net.cpp:122] Setting up conv3
I1010 22:05:50.054551 14913 net.cpp:129] Top shape: 64 384 13 13 (4153344)
I1010 22:05:50.054584 14913 net.cpp:137] Memory required for data: 358407168
I1010 22:05:50.054647 14913 layer_factory.hpp:77] Creating layer relu3
I1010 22:05:50.054682 14913 net.cpp:84] Creating Layer relu3
I1010 22:05:50.054702 14913 net.cpp:406] relu3 <- conv3
I1010 22:05:50.054725 14913 net.cpp:367] relu3 -> conv3 (in-place)
I1010 22:05:50.055452 14913 net.cpp:122] Setting up relu3
I1010 22:05:50.055481 14913 net.cpp:129] Top shape: 64 384 13 13 (4153344)
I1010 22:05:50.055487 14913 net.cpp:137] Memory required for data: 375020544
I1010 22:05:50.055495 14913 layer_factory.hpp:77] Creating layer conv4
I1010 22:05:50.055521 14913 net.cpp:84] Creating Layer conv4
I1010 22:05:50.055541 14913 net.cpp:406] conv4 <- conv3
I1010 22:05:50.055572 14913 net.cpp:380] conv4 -> conv4
I1010 22:05:50.070982 14913 net.cpp:122] Setting up conv4
I1010 22:05:50.071027 14913 net.cpp:129] Top shape: 64 384 13 13 (4153344)
I1010 22:05:50.071034 14913 net.cpp:137] Memory required for data: 391633920
I1010 22:05:50.071053 14913 layer_factory.hpp:77] Creating layer relu4
I1010 22:05:50.071075 14913 net.cpp:84] Creating Layer relu4
I1010 22:05:50.071082 14913 net.cpp:406] relu4 <- conv4
I1010 22:05:50.071095 14913 net.cpp:367] relu4 -> conv4 (in-place)
I1010 22:05:50.071617 14913 net.cpp:122] Setting up relu4
I1010 22:05:50.071630 14913 net.cpp:129] Top shape: 64 384 13 13 (4153344)
I1010 22:05:50.071635 14913 net.cpp:137] Memory required for data: 408247296
I1010 22:05:50.071640 14913 layer_factory.hpp:77] Creating layer conv5
I1010 22:05:50.071658 14913 net.cpp:84] Creating Layer conv5
I1010 22:05:50.071663 14913 net.cpp:406] conv5 <- conv4
I1010 22:05:50.071674 14913 net.cpp:380] conv5 -> conv5
I1010 22:05:50.085041 14913 net.cpp:122] Setting up conv5
I1010 22:05:50.085084 14913 net.cpp:129] Top shape: 64 256 13 13 (2768896)
I1010 22:05:50.085091 14913 net.cpp:137] Memory required for data: 419322880
I1010 22:05:50.085124 14913 layer_factory.hpp:77] Creating layer relu5
I1010 22:05:50.085140 14913 net.cpp:84] Creating Layer relu5
I1010 22:05:50.085176 14913 net.cpp:406] relu5 <- conv5
I1010 22:05:50.085189 14913 net.cpp:367] relu5 -> conv5 (in-place)
I1010 22:05:50.085433 14913 net.cpp:122] Setting up relu5
I1010 22:05:50.085445 14913 net.cpp:129] Top shape: 64 256 13 13 (2768896)
I1010 22:05:50.085449 14913 net.cpp:137] Memory required for data: 430398464
I1010 22:05:50.085454 14913 layer_factory.hpp:77] Creating layer pool5
I1010 22:05:50.085467 14913 net.cpp:84] Creating Layer pool5
I1010 22:05:50.085472 14913 net.cpp:406] pool5 <- conv5
I1010 22:05:50.085480 14913 net.cpp:380] pool5 -> pool5
I1010 22:05:50.085536 14913 net.cpp:122] Setting up pool5
I1010 22:05:50.085546 14913 net.cpp:129] Top shape: 64 256 6 6 (589824)
I1010 22:05:50.085551 14913 net.cpp:137] Memory required for data: 432757760
I1010 22:05:50.085556 14913 layer_factory.hpp:77] Creating layer fc6
I1010 22:05:50.085572 14913 net.cpp:84] Creating Layer fc6
I1010 22:05:50.085577 14913 net.cpp:406] fc6 <- pool5
I1010 22:05:50.085587 14913 net.cpp:380] fc6 -> fc6
I1010 22:05:50.616564 14913 net.cpp:122] Setting up fc6
I1010 22:05:50.616616 14913 net.cpp:129] Top shape: 64 4096 (262144)
I1010 22:05:50.616621 14913 net.cpp:137] Memory required for data: 433806336
I1010 22:05:50.616641 14913 layer_factory.hpp:77] Creating layer relu6
I1010 22:05:50.616655 14913 net.cpp:84] Creating Layer relu6
I1010 22:05:50.616662 14913 net.cpp:406] relu6 <- fc6
I1010 22:05:50.616672 14913 net.cpp:367] relu6 -> fc6 (in-place)
I1010 22:05:50.616982 14913 net.cpp:122] Setting up relu6
I1010 22:05:50.616992 14913 net.cpp:129] Top shape: 64 4096 (262144)
I1010 22:05:50.616998 14913 net.cpp:137] Memory required for data: 434854912
I1010 22:05:50.617004 14913 layer_factory.hpp:77] Creating layer drop6
I1010 22:05:50.617017 14913 net.cpp:84] Creating Layer drop6
I1010 22:05:50.617022 14913 net.cpp:406] drop6 <- fc6
I1010 22:05:50.617027 14913 net.cpp:367] drop6 -> fc6 (in-place)
I1010 22:05:50.617060 14913 net.cpp:122] Setting up drop6
I1010 22:05:50.617067 14913 net.cpp:129] Top shape: 64 4096 (262144)
I1010 22:05:50.617071 14913 net.cpp:137] Memory required for data: 435903488
I1010 22:05:50.617075 14913 layer_factory.hpp:77] Creating layer fc7
I1010 22:05:50.617085 14913 net.cpp:84] Creating Layer fc7
I1010 22:05:50.617090 14913 net.cpp:406] fc7 <- fc6
I1010 22:05:50.617102 14913 net.cpp:380] fc7 -> fc7
I1010 22:05:50.840929 14913 net.cpp:122] Setting up fc7
I1010 22:05:50.840981 14913 net.cpp:129] Top shape: 64 4096 (262144)
I1010 22:05:50.840987 14913 net.cpp:137] Memory required for data: 436952064
I1010 22:05:50.841006 14913 layer_factory.hpp:77] Creating layer relu7
I1010 22:05:50.841022 14913 net.cpp:84] Creating Layer relu7
I1010 22:05:50.841028 14913 net.cpp:406] relu7 <- fc7
I1010 22:05:50.841038 14913 net.cpp:367] relu7 -> fc7 (in-place)
I1010 22:05:50.841352 14913 net.cpp:122] Setting up relu7
I1010 22:05:50.841361 14913 net.cpp:129] Top shape: 64 4096 (262144)
I1010 22:05:50.841367 14913 net.cpp:137] Memory required for data: 438000640
I1010 22:05:50.841372 14913 layer_factory.hpp:77] Creating layer drop7
I1010 22:05:50.841383 14913 net.cpp:84] Creating Layer drop7
I1010 22:05:50.841388 14913 net.cpp:406] drop7 <- fc7
I1010 22:05:50.841394 14913 net.cpp:367] drop7 -> fc7 (in-place)
I1010 22:05:50.841423 14913 net.cpp:122] Setting up drop7
I1010 22:05:50.841452 14913 net.cpp:129] Top shape: 64 4096 (262144)
I1010 22:05:50.841475 14913 net.cpp:137] Memory required for data: 439049216
I1010 22:05:50.841491 14913 layer_factory.hpp:77] Creating layer fc8
I1010 22:05:50.841512 14913 net.cpp:84] Creating Layer fc8
I1010 22:05:50.841531 14913 net.cpp:406] fc8 <- fc7
I1010 22:05:50.841552 14913 net.cpp:380] fc8 -> fc8
I1010 22:05:50.843322 14913 net.cpp:122] Setting up fc8
I1010 22:05:50.843358 14913 net.cpp:129] Top shape: 64 2 (128)
I1010 22:05:50.843364 14913 net.cpp:137] Memory required for data: 439049728
I1010 22:05:50.843379 14913 layer_factory.hpp:77] Creating layer loss
I1010 22:05:50.843392 14913 net.cpp:84] Creating Layer loss
I1010 22:05:50.843397 14913 net.cpp:406] loss <- fc8
I1010 22:05:50.843405 14913 net.cpp:406] loss <- label
I1010 22:05:50.843457 14913 net.cpp:380] loss -> loss
I1010 22:05:50.843483 14913 layer_factory.hpp:77] Creating layer loss
…
