…
net: "./train_val.prototxt"
train_state {
  level: 0
  stage: ""
}
I1004 13:21:42.389233 13379 solver.cpp:87] Creating training net from net file: ./train_val.prototxt
I1004 13:21:42.390063 13379 net.cpp:51] Initializing net from parameters: 
name: "CaffeNet"
state {
  phase: TRAIN
  level: 0
  stage: ""
}
layer {
  name: "data"
  type: "Data"
  top: "data"
  top: "label"
  include {
    phase: TRAIN
  }
  transform_param {
    mirror: true
    crop_size: 227
  }
  data_param {
    source: "/home/hzzone/1tb/data/train_lmdb"
    batch_size: 128
    backend: LMDB
  }
}
layer {
  name: "conv1"
  type: "Convolution"
  bottom: "data"
  top: "conv1"
  param {
    lr_mult: 1
    decay_mult: 1
  }
  param {
    lr_mult: 2
    decay_mult: 0
  }
  convolution_param {
    num_output: 96
    kernel_size: 11
    stride: 4
    weight_filler {
      type: "gaussian"
      std: 0.01
    }
    bias_filler {
      type: "constant"
      value: 0
    }
  }
}
layer {
  name: "relu1"
  type: "ReLU"
  bottom: "conv1"
  top: "conv1"
}
layer {
  name: "pool1"
  type: "Pooling"
  bottom: "conv1"
  top: "pool1"
  pooling_param {
    pool: MAX
    kernel_size: 3
    stride: 2
  }
}
layer {
  name: "norm1"
  type: "LRN"
  bottom: "pool1"
  top: "norm1"
  lrn_param {
    local_size: 5
    alpha: 0.0001
    beta: 0.75
  }
}
layer {
  name: "conv2"
  type: "Convolution"
  bottom: "norm1"
  top: "conv2"
  param {
    lr_mult: 1
    decay_mult: 1
  }
  param {
    lr_mult: 2
    decay_mult: 0
  }
  convolution_param {
    num_output: 256
    pad: 2
    kernel_size: 5
    group: 2
    weight_filler {
      type: "gaussian"
      std: 0.01
    }
    bias_filler {
      type: "constant"
      value: 1
    }
  }
}
layer {
  name: "relu2"
  type: "ReLU"
  bottom: "conv2"
  top: "conv2"
}
layer {
  name: "pool2"
  type: "Pooling"
  bottom: "conv2"
  top: "pool2"
  pooling_param {
    pool: MAX
    kernel_size: 3
    stride: 2
  }
}
layer {
  name: "norm2"
  type: "LRN"
  bottom: "pool2"
  top: "norm2"
  lrn_param {
    local_size: 5
    alpha: 0.0001
    beta: 0.75
  }
}
layer {
  name: "conv3"
  type: "Convolution"
  bottom: "norm2"
  top: "conv3"
  param {
    lr_mult: 1
    decay_mult: 1
  }
  param {
    lr_mult: 2
    decay_mult: 0
  }
  convolution_param {
    num_output: 384
    pad: 1
    kernel_size: 3
    weight_filler {
      type: "gaussian"
      std: 0.01
    }
    bias_filler {
      type: "constant"
      value: 0
    }
  }
}
layer {
  name: "relu3"
  type: "ReLU"
  bottom: "conv3"
  top: "conv3"
}
layer {
  name: "conv4"
  type: "Convolution"
  bottom: "conv3"
  top: "conv4"
  param {
    lr_mult: 1
    decay_mult: 1
  }
  param {
    lr_mult: 2
    decay_mult: 0
  }
  convolution_param {
    num_output: 384
    pad: 1
    kernel_size: 3
    group: 2
    weight_filler {
      type: "gaussian"
      std: 0.01
    }
    bias_filler {
      type: "constant"
      value: 1
    }
  }
}
layer {
  name: "relu4"
  type: "ReLU"
  bottom: "conv4"
  top: "conv4"
}
layer {
  name: "conv5"
  type: "Convolution"
  bottom: "conv4"
  top: "conv5"
  param {
    lr_mult: 1
    decay_mult: 1
  }
  param {
    lr_mult: 2
    decay_mult: 0
  }
  convolution_param {
    num_output: 256
    pad: 1
    kernel_size: 3
    group: 2
    weight_filler {
      type: "gaussian"
      std: 0.01
    }
    bias_filler {
      type: "constant"
      value: 1
    }
  }
}
layer {
  name: "relu5"
  type: "ReLU"
  bottom: "conv5"
  top: "conv5"
}
layer {
  name: "pool5"
  type: "Pooling"
  bottom: "conv5"
  top: "pool5"
  pooling_param {
    pool: MAX
    kernel_size: 3
    stride: 2
  }
}
layer {
  name: "fc6"
  type: "InnerProduct"
  bottom: "pool5"
  top: "fc6"
  param {
    lr_mult: 1
    decay_mult: 1
  }
  param {
    lr_mult: 2
    decay_mult: 0
  }
  inner_product_param {
    num_output: 4096
    weight_filler {
      type: "gaussian"
      std: 0.005
    }
    bias_filler {
      type: "constant"
      value: 1
    }
  }
}
layer {
  name: "relu6"
  type: "ReLU"
  bottom: "fc6"
  top: "fc6"
}
layer {
  name: "drop6"
  type: "Dropout"
  bottom: "fc6"
  top: "fc6"
  dropout_param {
    dropout_ratio: 0.5
  }
}
layer {
  name: "fc7"
  type: "InnerProduct"
  bottom: "fc6"
  top: "fc7"
  param {
    lr_mult: 1
    decay_mult: 1
  }
  param {
    lr_mult: 2
    decay_mult: 0
  }
  inner_product_param {
    num_output: 4096
    weight_filler {
      type: "gaussian"
      std: 0.005
    }
    bias_filler {
      type: "constant"
      value: 1
    }
  }
}
layer {
  name: "relu7"
  type: "ReLU"
  bottom: "fc7"
  top: "fc7"
}
layer {
  name: "drop7"
  type: "Dropout"
  bottom: "fc7"
  top: "fc7"
  dropout_param {
    dropout_ratio: 0.5
  }
}
layer {
  name: "my-fc8"
  type: "InnerProduct"
  bottom: "fc7"
  top: "my-fc8"
  param {
    lr_mult: 1
    decay_mult: 1
  }
  param {
    lr_mult: 2
    decay_mult: 0
  }
  inner_product_param {
    num_output: 10572
    weight_filler {
      type: "gaussian"
      std: 0.01
    }
    bias_filler {
      type: "constant"
      value: 0
    }
  }
}
layer {
  name: "loss"
  type: "SoftmaxWithLoss"
  bottom: "my-fc8"
  bottom: "label"
  top: "loss"
}
I1004 13:21:42.390188 13379 layer_factory.hpp:77] Creating layer data
I1004 13:21:42.390327 13379 db_lmdb.cpp:35] Opened lmdb /home/hzzone/1tb/data/train_lmdb
I1004 13:21:42.390367 13379 net.cpp:84] Creating Layer data
I1004 13:21:42.390379 13379 net.cpp:380] data -> data
I1004 13:21:42.390405 13379 net.cpp:380] data -> label
I1004 13:21:42.392133 13379 data_layer.cpp:45] output data size: 128,3,227,227
I1004 13:21:42.601991 13379 net.cpp:122] Setting up data
I1004 13:21:42.602030 13379 net.cpp:129] Top shape: 128 3 227 227 (19787136)
I1004 13:21:42.602037 13379 net.cpp:129] Top shape: 128 (128)
I1004 13:21:42.602041 13379 net.cpp:137] Memory required for data: 79149056
I1004 13:21:42.602053 13379 layer_factory.hpp:77] Creating layer conv1
I1004 13:21:42.602084 13379 net.cpp:84] Creating Layer conv1
I1004 13:21:42.602102 13379 net.cpp:406] conv1 <- data
I1004 13:21:42.602121 13379 net.cpp:380] conv1 -> conv1
I1004 13:21:42.957631 13379 net.cpp:122] Setting up conv1
I1004 13:21:42.957689 13379 net.cpp:129] Top shape: 128 96 55 55 (37171200)
I1004 13:21:42.957698 13379 net.cpp:137] Memory required for data: 227833856
I1004 13:21:42.957741 13379 layer_factory.hpp:77] Creating layer relu1
I1004 13:21:42.957761 13379 net.cpp:84] Creating Layer relu1
I1004 13:21:42.957767 13379 net.cpp:406] relu1 <- conv1
I1004 13:21:42.957777 13379 net.cpp:367] relu1 -> conv1 (in-place)
I1004 13:21:42.958053 13379 net.cpp:122] Setting up relu1
I1004 13:21:42.958063 13379 net.cpp:129] Top shape: 128 96 55 55 (37171200)
I1004 13:21:42.958068 13379 net.cpp:137] Memory required for data: 376518656
I1004 13:21:42.958073 13379 layer_factory.hpp:77] Creating layer pool1
I1004 13:21:42.958082 13379 net.cpp:84] Creating Layer pool1
I1004 13:21:42.958087 13379 net.cpp:406] pool1 <- conv1
I1004 13:21:42.958094 13379 net.cpp:380] pool1 -> pool1
I1004 13:21:42.958159 13379 net.cpp:122] Setting up pool1
I1004 13:21:42.958168 13379 net.cpp:129] Top shape: 128 96 27 27 (8957952)
I1004 13:21:42.958173 13379 net.cpp:137] Memory required for data: 412350464
I1004 13:21:42.958178 13379 layer_factory.hpp:77] Creating layer norm1
I1004 13:21:42.958191 13379 net.cpp:84] Creating Layer norm1
I1004 13:21:42.958196 13379 net.cpp:406] norm1 <- pool1
I1004 13:21:42.958204 13379 net.cpp:380] norm1 -> norm1
I1004 13:21:42.958427 13379 net.cpp:122] Setting up norm1
I1004 13:21:42.958436 13379 net.cpp:129] Top shape: 128 96 27 27 (8957952)
I1004 13:21:42.958441 13379 net.cpp:137] Memory required for data: 448182272
I1004 13:21:42.958446 13379 layer_factory.hpp:77] Creating layer conv2
I1004 13:21:42.958461 13379 net.cpp:84] Creating Layer conv2
I1004 13:21:42.958467 13379 net.cpp:406] conv2 <- norm1
I1004 13:21:42.958500 13379 net.cpp:380] conv2 -> conv2
I1004 13:21:42.966969 13379 net.cpp:122] Setting up conv2
I1004 13:21:42.967020 13379 net.cpp:129] Top shape: 128 256 27 27 (23887872)
I1004 13:21:42.967026 13379 net.cpp:137] Memory required for data: 543733760
I1004 13:21:42.967054 13379 layer_factory.hpp:77] Creating layer relu2
I1004 13:21:42.967072 13379 net.cpp:84] Creating Layer relu2
I1004 13:21:42.967079 13379 net.cpp:406] relu2 <- conv2
I1004 13:21:42.967090 13379 net.cpp:367] relu2 -> conv2 (in-place)
I1004 13:21:42.967362 13379 net.cpp:122] Setting up relu2
I1004 13:21:42.967371 13379 net.cpp:129] Top shape: 128 256 27 27 (23887872)
I1004 13:21:42.967376 13379 net.cpp:137] Memory required for data: 639285248
I1004 13:21:42.967381 13379 layer_factory.hpp:77] Creating layer pool2
I1004 13:21:42.967391 13379 net.cpp:84] Creating Layer pool2
I1004 13:21:42.967396 13379 net.cpp:406] pool2 <- conv2
I1004 13:21:42.967403 13379 net.cpp:380] pool2 -> pool2
I1004 13:21:42.967464 13379 net.cpp:122] Setting up pool2
I1004 13:21:42.967473 13379 net.cpp:129] Top shape: 128 256 13 13 (5537792)
I1004 13:21:42.967478 13379 net.cpp:137] Memory required for data: 661436416
I1004 13:21:42.967483 13379 layer_factory.hpp:77] Creating layer norm2
I1004 13:21:42.967495 13379 net.cpp:84] Creating Layer norm2
I1004 13:21:42.967500 13379 net.cpp:406] norm2 <- pool2
I1004 13:21:42.967507 13379 net.cpp:380] norm2 -> norm2
I1004 13:21:42.968086 13379 net.cpp:122] Setting up norm2
I1004 13:21:42.968096 13379 net.cpp:129] Top shape: 128 256 13 13 (5537792)
I1004 13:21:42.968102 13379 net.cpp:137] Memory required for data: 683587584
I1004 13:21:42.968107 13379 layer_factory.hpp:77] Creating layer conv3
I1004 13:21:42.968122 13379 net.cpp:84] Creating Layer conv3
I1004 13:21:42.968127 13379 net.cpp:406] conv3 <- norm2
I1004 13:21:42.968137 13379 net.cpp:380] conv3 -> conv3
I1004 13:21:42.982005 13379 net.cpp:122] Setting up conv3
I1004 13:21:42.982043 13379 net.cpp:129] Top shape: 128 384 13 13 (8306688)
I1004 13:21:42.982048 13379 net.cpp:137] Memory required for data: 716814336
I1004 13:21:42.982075 13379 layer_factory.hpp:77] Creating layer relu3
I1004 13:21:42.982090 13379 net.cpp:84] Creating Layer relu3
I1004 13:21:42.982097 13379 net.cpp:406] relu3 <- conv3
I1004 13:21:42.982108 13379 net.cpp:367] relu3 -> conv3 (in-place)
I1004 13:21:42.982550 13379 net.cpp:122] Setting up relu3
I1004 13:21:42.982561 13379 net.cpp:129] Top shape: 128 384 13 13 (8306688)
I1004 13:21:42.982566 13379 net.cpp:137] Memory required for data: 750041088
I1004 13:21:42.982571 13379 layer_factory.hpp:77] Creating layer conv4
I1004 13:21:42.982584 13379 net.cpp:84] Creating Layer conv4
I1004 13:21:42.982591 13379 net.cpp:406] conv4 <- conv3
I1004 13:21:42.982600 13379 net.cpp:380] conv4 -> conv4
I1004 13:21:42.994068 13379 net.cpp:122] Setting up conv4
I1004 13:21:42.994109 13379 net.cpp:129] Top shape: 128 384 13 13 (8306688)
I1004 13:21:42.994115 13379 net.cpp:137] Memory required for data: 783267840
I1004 13:21:42.994133 13379 layer_factory.hpp:77] Creating layer relu4
I1004 13:21:42.994148 13379 net.cpp:84] Creating Layer relu4
I1004 13:21:42.994154 13379 net.cpp:406] relu4 <- conv4
I1004 13:21:42.994168 13379 net.cpp:367] relu4 -> conv4 (in-place)
I1004 13:21:42.994642 13379 net.cpp:122] Setting up relu4
I1004 13:21:42.994655 13379 net.cpp:129] Top shape: 128 384 13 13 (8306688)
I1004 13:21:42.994660 13379 net.cpp:137] Memory required for data: 816494592
I1004 13:21:42.994665 13379 layer_factory.hpp:77] Creating layer conv5
I1004 13:21:42.994681 13379 net.cpp:84] Creating Layer conv5
I1004 13:21:42.994688 13379 net.cpp:406] conv5 <- conv4
I1004 13:21:42.994710 13379 net.cpp:380] conv5 -> conv5
I1004 13:21:43.003720 13379 net.cpp:122] Setting up conv5
I1004 13:21:43.003756 13379 net.cpp:129] Top shape: 128 256 13 13 (5537792)
I1004 13:21:43.003762 13379 net.cpp:137] Memory required for data: 838645760
I1004 13:21:43.003789 13379 layer_factory.hpp:77] Creating layer relu5
I1004 13:21:43.003804 13379 net.cpp:84] Creating Layer relu5
I1004 13:21:43.003857 13379 net.cpp:406] relu5 <- conv5
I1004 13:21:43.003870 13379 net.cpp:367] relu5 -> conv5 (in-place)
I1004 13:21:43.004078 13379 net.cpp:122] Setting up relu5
I1004 13:21:43.004087 13379 net.cpp:129] Top shape: 128 256 13 13 (5537792)
I1004 13:21:43.004092 13379 net.cpp:137] Memory required for data: 860796928
I1004 13:21:43.004099 13379 layer_factory.hpp:77] Creating layer pool5
I1004 13:21:43.004110 13379 net.cpp:84] Creating Layer pool5
I1004 13:21:43.004117 13379 net.cpp:406] pool5 <- conv5
I1004 13:21:43.004123 13379 net.cpp:380] pool5 -> pool5
I1004 13:21:43.004173 13379 net.cpp:122] Setting up pool5
I1004 13:21:43.004182 13379 net.cpp:129] Top shape: 128 256 6 6 (1179648)
I1004 13:21:43.004187 13379 net.cpp:137] Memory required for data: 865515520
I1004 13:21:43.004192 13379 layer_factory.hpp:77] Creating layer fc6
I1004 13:21:43.004207 13379 net.cpp:84] Creating Layer fc6
I1004 13:21:43.004214 13379 net.cpp:406] fc6 <- pool5
I1004 13:21:43.004220 13379 net.cpp:380] fc6 -> fc6
I1004 13:21:43.495487 13379 net.cpp:122] Setting up fc6
I1004 13:21:43.495534 13379 net.cpp:129] Top shape: 128 4096 (524288)
I1004 13:21:43.495540 13379 net.cpp:137] Memory required for data: 867612672
I1004 13:21:43.495559 13379 layer_factory.hpp:77] Creating layer relu6
I1004 13:21:43.495575 13379 net.cpp:84] Creating Layer relu6
I1004 13:21:43.495582 13379 net.cpp:406] relu6 <- fc6
I1004 13:21:43.495594 13379 net.cpp:367] relu6 -> fc6 (in-place)
I1004 13:21:43.495887 13379 net.cpp:122] Setting up relu6
I1004 13:21:43.495896 13379 net.cpp:129] Top shape: 128 4096 (524288)
I1004 13:21:43.495901 13379 net.cpp:137] Memory required for data: 869709824
I1004 13:21:43.495908 13379 layer_factory.hpp:77] Creating layer drop6
I1004 13:21:43.495918 13379 net.cpp:84] Creating Layer drop6
I1004 13:21:43.495924 13379 net.cpp:406] drop6 <- fc6
I1004 13:21:43.495934 13379 net.cpp:367] drop6 -> fc6 (in-place)
I1004 13:21:43.495959 13379 net.cpp:122] Setting up drop6
I1004 13:21:43.495967 13379 net.cpp:129] Top shape: 128 4096 (524288)
I1004 13:21:43.495972 13379 net.cpp:137] Memory required for data: 871806976
I1004 13:21:43.495976 13379 layer_factory.hpp:77] Creating layer fc7
I1004 13:21:43.495991 13379 net.cpp:84] Creating Layer fc7
I1004 13:21:43.495996 13379 net.cpp:406] fc7 <- fc6
I1004 13:21:43.496006 13379 net.cpp:380] fc7 -> fc7
I1004 13:21:43.715405 13379 net.cpp:122] Setting up fc7
I1004 13:21:43.715451 13379 net.cpp:129] Top shape: 128 4096 (524288)
I1004 13:21:43.715456 13379 net.cpp:137] Memory required for data: 873904128
I1004 13:21:43.715476 13379 layer_factory.hpp:77] Creating layer relu7
I1004 13:21:43.715492 13379 net.cpp:84] Creating Layer relu7
I1004 13:21:43.715498 13379 net.cpp:406] relu7 <- fc7
I1004 13:21:43.715510 13379 net.cpp:367] relu7 -> fc7 (in-place)
I1004 13:21:43.715804 13379 net.cpp:122] Setting up relu7
I1004 13:21:43.715813 13379 net.cpp:129] Top shape: 128 4096 (524288)
I1004 13:21:43.715818 13379 net.cpp:137] Memory required for data: 876001280
I1004 13:21:43.715822 13379 layer_factory.hpp:77] Creating layer drop7
I1004 13:21:43.715832 13379 net.cpp:84] Creating Layer drop7
I1004 13:21:43.715837 13379 net.cpp:406] drop7 <- fc7
I1004 13:21:43.715847 13379 net.cpp:367] drop7 -> fc7 (in-place)
I1004 13:21:43.715868 13379 net.cpp:122] Setting up drop7
I1004 13:21:43.715878 13379 net.cpp:129] Top shape: 128 4096 (524288)
I1004 13:21:43.715883 13379 net.cpp:137] Memory required for data: 878098432
I1004 13:21:43.715886 13379 layer_factory.hpp:77] Creating layer my-fc8
I1004 13:21:43.715898 13379 net.cpp:84] Creating Layer my-fc8
I1004 13:21:43.715901 13379 net.cpp:406] my-fc8 <- fc7
I1004 13:21:43.715911 13379 net.cpp:380] my-fc8 -> my-fc8
I1004 13:21:44.279095 13379 net.cpp:122] Setting up my-fc8
I1004 13:21:44.279141 13379 net.cpp:129] Top shape: 128 10572 (1353216)
I1004 13:21:44.279146 13379 net.cpp:137] Memory required for data: 883511296
I1004 13:21:44.279162 13379 layer_factory.hpp:77] Creating layer loss
I1004 13:21:44.279176 13379 net.cpp:84] Creating Layer loss
I1004 13:21:44.279183 13379 net.cpp:406] loss <- my-fc8
I1004 13:21:44.279225 13379 net.cpp:406] loss <- label
I1004 13:21:44.279238 13379 net.cpp:380] loss -> loss
I1004 13:21:44.279266 13379 layer_factory.hpp:77] Creating layer loss
…
