…
net: "./train_val.prototxt"
train_state {
  level: 0
  stage: ""
}
I1022 21:44:51.875994 25692 solver.cpp:91] Creating training net from net file: ./train_val.prototxt
I1022 21:44:51.876617 25692 net.cpp:58] Initializing net from parameters: 
name: "AlexNet"
state {
  phase: TRAIN
  level: 0
  stage: ""
}
layer {
  name: "data"
  type: "Data"
  top: "data"
  top: "label"
  include {
    phase: TRAIN
  }
  transform_param {
    mirror: true
    crop_size: 227
  }
  data_param {
    source: "/home/hzzone/1tb/data/train_lmdb"
    batch_size: 128
    backend: LMDB
  }
}
layer {
  name: "conv1"
  type: "Convolution"
  bottom: "data"
  top: "conv1"
  param {
    lr_mult: 1
    decay_mult: 1
  }
  param {
    lr_mult: 2
    decay_mult: 0
  }
  convolution_param {
    num_output: 96
    kernel_size: 11
    stride: 4
    weight_filler {
      type: "gaussian"
      std: 0.01
    }
    bias_filler {
      type: "constant"
      value: 0
    }
  }
}
layer {
  name: "relu1"
  type: "ReLU"
  bottom: "conv1"
  top: "conv1"
}
layer {
  name: "norm1"
  type: "LRN"
  bottom: "conv1"
  top: "norm1"
  lrn_param {
    local_size: 5
    alpha: 0.0001
    beta: 0.75
  }
}
layer {
  name: "pool1"
  type: "Pooling"
  bottom: "norm1"
  top: "pool1"
  pooling_param {
    pool: MAX
    kernel_size: 3
    stride: 2
  }
}
layer {
  name: "conv2"
  type: "Convolution"
  bottom: "pool1"
  top: "conv2"
  param {
    lr_mult: 1
    decay_mult: 1
  }
  param {
    lr_mult: 2
    decay_mult: 0
  }
  convolution_param {
    num_output: 256
    pad: 2
    kernel_size: 5
    group: 2
    weight_filler {
      type: "gaussian"
      std: 0.01
    }
    bias_filler {
      type: "constant"
      value: 0.1
    }
  }
}
layer {
  name: "relu2"
  type: "ReLU"
  bottom: "conv2"
  top: "conv2"
}
layer {
  name: "norm2"
  type: "LRN"
  bottom: "conv2"
  top: "norm2"
  lrn_param {
    local_size: 5
    alpha: 0.0001
    beta: 0.75
  }
}
layer {
  name: "pool2"
  type: "Pooling"
  bottom: "norm2"
  top: "pool2"
  pooling_param {
    pool: MAX
    kernel_size: 3
    stride: 2
  }
}
layer {
  name: "conv3"
  type: "Convolution"
  bottom: "pool2"
  top: "conv3"
  param {
    lr_mult: 1
    decay_mult: 1
  }
  param {
    lr_mult: 2
    decay_mult: 0
  }
  convolution_param {
    num_output: 384
    pad: 1
    kernel_size: 3
    weight_filler {
      type: "gaussian"
      std: 0.01
    }
    bias_filler {
      type: "constant"
      value: 0
    }
  }
}
layer {
  name: "relu3"
  type: "ReLU"
  bottom: "conv3"
  top: "conv3"
}
layer {
  name: "conv4"
  type: "Convolution"
  bottom: "conv3"
  top: "conv4"
  param {
    lr_mult: 1
    decay_mult: 1
  }
  param {
    lr_mult: 2
    decay_mult: 0
  }
  convolution_param {
    num_output: 384
    pad: 1
    kernel_size: 3
    group: 2
    weight_filler {
      type: "gaussian"
      std: 0.01
    }
    bias_filler {
      type: "constant"
      value: 0.1
    }
  }
}
layer {
  name: "relu4"
  type: "ReLU"
  bottom: "conv4"
  top: "conv4"
}
layer {
  name: "conv5"
  type: "Convolution"
  bottom: "conv4"
  top: "conv5"
  param {
    lr_mult: 1
    decay_mult: 1
  }
  param {
    lr_mult: 2
    decay_mult: 0
  }
  convolution_param {
    num_output: 256
    pad: 1
    kernel_size: 3
    group: 2
    weight_filler {
      type: "gaussian"
      std: 0.01
    }
    bias_filler {
      type: "constant"
      value: 0.1
    }
  }
}
layer {
  name: "relu5"
  type: "ReLU"
  bottom: "conv5"
  top: "conv5"
}
layer {
  name: "pool5"
  type: "Pooling"
  bottom: "conv5"
  top: "pool5"
  pooling_param {
    pool: MAX
    kernel_size: 3
    stride: 2
  }
}
layer {
  name: "fc6"
  type: "InnerProduct"
  bottom: "pool5"
  top: "fc6"
  param {
    lr_mult: 1
    decay_mult: 1
  }
  param {
    lr_mult: 2
    decay_mult: 0
  }
  inner_product_param {
    num_output: 4096
    weight_filler {
      type: "gaussian"
      std: 0.005
    }
    bias_filler {
      type: "constant"
      value: 0.1
    }
  }
}
layer {
  name: "relu6"
  type: "ReLU"
  bottom: "fc6"
  top: "fc6"
}
layer {
  name: "drop6"
  type: "Dropout"
  bottom: "fc6"
  top: "fc6"
  dropout_param {
    dropout_ratio: 0.5
  }
}
layer {
  name: "fc7"
  type: "InnerProduct"
  bottom: "fc6"
  top: "fc7"
  param {
    lr_mult: 1
    decay_mult: 1
  }
  param {
    lr_mult: 2
    decay_mult: 0
  }
  inner_product_param {
    num_output: 4096
    weight_filler {
      type: "gaussian"
      std: 0.005
    }
    bias_filler {
      type: "constant"
      value: 0.1
    }
  }
}
layer {
  name: "relu7"
  type: "ReLU"
  bottom: "fc7"
  top: "fc7"
}
layer {
  name: "drop7"
  type: "Dropout"
  bottom: "fc7"
  top: "fc7"
  dropout_param {
    dropout_ratio: 0.5
  }
}
layer {
  name: "my-fc8"
  type: "InnerProduct"
  bottom: "fc7"
  top: "my-fc8"
  param {
    lr_mult: 1
    decay_mult: 1
  }
  param {
    lr_mult: 2
    decay_mult: 0
  }
  inner_product_param {
    num_output: 10572
    weight_filler {
      type: "gaussian"
      std: 0.01
    }
    bias_filler {
      type: "constant"
      value: 0
    }
  }
}
layer {
  name: "loss"
  type: "SoftmaxWithLoss"
  bottom: "my-fc8"
  bottom: "label"
  top: "loss"
}
layer {
  name: "center_loss"
  type: "CenterLoss"
  bottom: "fc7"
  bottom: "label"
  top: "center_loss"
  loss_weight: 0.008
  param {
    lr_mult: 1
    decay_mult: 2
  }
  center_loss_param {
    num_output: 10572
    center_filler {
      type: "xavier"
    }
  }
}
I1022 21:44:51.876796 25692 layer_factory.hpp:77] Creating layer data
I1022 21:44:51.877050 25692 net.cpp:100] Creating Layer data
I1022 21:44:51.877061 25692 net.cpp:408] data -> data
I1022 21:44:51.877087 25692 net.cpp:408] data -> label
I1022 21:44:51.877871 25698 db_lmdb.cpp:35] Opened lmdb /home/hzzone/1tb/data/train_lmdb
I1022 21:44:51.892974 25692 data_layer.cpp:41] output data size: 128,3,227,227
I1022 21:44:52.086460 25692 net.cpp:150] Setting up data
I1022 21:44:52.086503 25692 net.cpp:157] Top shape: 128 3 227 227 (19787136)
I1022 21:44:52.086509 25692 net.cpp:157] Top shape: 128 (128)
I1022 21:44:52.086514 25692 net.cpp:165] Memory required for data: 79149056
I1022 21:44:52.086531 25692 layer_factory.hpp:77] Creating layer label_data_1_split
I1022 21:44:52.086549 25692 net.cpp:100] Creating Layer label_data_1_split
I1022 21:44:52.086573 25692 net.cpp:434] label_data_1_split <- label
I1022 21:44:52.086606 25692 net.cpp:408] label_data_1_split -> label_data_1_split_0
I1022 21:44:52.086632 25692 net.cpp:408] label_data_1_split -> label_data_1_split_1
I1022 21:44:52.086695 25692 net.cpp:150] Setting up label_data_1_split
I1022 21:44:52.086705 25692 net.cpp:157] Top shape: 128 (128)
I1022 21:44:52.086711 25692 net.cpp:157] Top shape: 128 (128)
I1022 21:44:52.086715 25692 net.cpp:165] Memory required for data: 79150080
I1022 21:44:52.086719 25692 layer_factory.hpp:77] Creating layer conv1
I1022 21:44:52.086741 25692 net.cpp:100] Creating Layer conv1
I1022 21:44:52.086747 25692 net.cpp:434] conv1 <- data
I1022 21:44:52.086755 25692 net.cpp:408] conv1 -> conv1
I1022 21:44:52.432677 25692 net.cpp:150] Setting up conv1
I1022 21:44:52.432720 25692 net.cpp:157] Top shape: 128 96 55 55 (37171200)
I1022 21:44:52.432726 25692 net.cpp:165] Memory required for data: 227834880
I1022 21:44:52.432767 25692 layer_factory.hpp:77] Creating layer relu1
I1022 21:44:52.432783 25692 net.cpp:100] Creating Layer relu1
I1022 21:44:52.432833 25692 net.cpp:434] relu1 <- conv1
I1022 21:44:52.432855 25692 net.cpp:395] relu1 -> conv1 (in-place)
I1022 21:44:52.433174 25692 net.cpp:150] Setting up relu1
I1022 21:44:52.433199 25692 net.cpp:157] Top shape: 128 96 55 55 (37171200)
I1022 21:44:52.433218 25692 net.cpp:165] Memory required for data: 376519680
I1022 21:44:52.433234 25692 layer_factory.hpp:77] Creating layer norm1
I1022 21:44:52.433279 25692 net.cpp:100] Creating Layer norm1
I1022 21:44:52.433310 25692 net.cpp:434] norm1 <- conv1
I1022 21:44:52.433320 25692 net.cpp:408] norm1 -> norm1
I1022 21:44:52.433586 25692 net.cpp:150] Setting up norm1
I1022 21:44:52.433596 25692 net.cpp:157] Top shape: 128 96 55 55 (37171200)
I1022 21:44:52.433601 25692 net.cpp:165] Memory required for data: 525204480
I1022 21:44:52.433606 25692 layer_factory.hpp:77] Creating layer pool1
I1022 21:44:52.433615 25692 net.cpp:100] Creating Layer pool1
I1022 21:44:52.433620 25692 net.cpp:434] pool1 <- norm1
I1022 21:44:52.433627 25692 net.cpp:408] pool1 -> pool1
I1022 21:44:52.433673 25692 net.cpp:150] Setting up pool1
I1022 21:44:52.433681 25692 net.cpp:157] Top shape: 128 96 27 27 (8957952)
I1022 21:44:52.433697 25692 net.cpp:165] Memory required for data: 561036288
I1022 21:44:52.433701 25692 layer_factory.hpp:77] Creating layer conv2
I1022 21:44:52.433717 25692 net.cpp:100] Creating Layer conv2
I1022 21:44:52.433722 25692 net.cpp:434] conv2 <- pool1
I1022 21:44:52.433728 25692 net.cpp:408] conv2 -> conv2
I1022 21:44:52.441943 25692 net.cpp:150] Setting up conv2
I1022 21:44:52.441994 25692 net.cpp:157] Top shape: 128 256 27 27 (23887872)
I1022 21:44:52.442000 25692 net.cpp:165] Memory required for data: 656587776
I1022 21:44:52.442029 25692 layer_factory.hpp:77] Creating layer relu2
I1022 21:44:52.442046 25692 net.cpp:100] Creating Layer relu2
I1022 21:44:52.442054 25692 net.cpp:434] relu2 <- conv2
I1022 21:44:52.442065 25692 net.cpp:395] relu2 -> conv2 (in-place)
I1022 21:44:52.442328 25692 net.cpp:150] Setting up relu2
I1022 21:44:52.442338 25692 net.cpp:157] Top shape: 128 256 27 27 (23887872)
I1022 21:44:52.442343 25692 net.cpp:165] Memory required for data: 752139264
I1022 21:44:52.442348 25692 layer_factory.hpp:77] Creating layer norm2
I1022 21:44:52.442361 25692 net.cpp:100] Creating Layer norm2
I1022 21:44:52.442366 25692 net.cpp:434] norm2 <- conv2
I1022 21:44:52.442373 25692 net.cpp:408] norm2 -> norm2
I1022 21:44:52.442970 25692 net.cpp:150] Setting up norm2
I1022 21:44:52.442981 25692 net.cpp:157] Top shape: 128 256 27 27 (23887872)
I1022 21:44:52.442984 25692 net.cpp:165] Memory required for data: 847690752
I1022 21:44:52.442989 25692 layer_factory.hpp:77] Creating layer pool2
I1022 21:44:52.442998 25692 net.cpp:100] Creating Layer pool2
I1022 21:44:52.443003 25692 net.cpp:434] pool2 <- norm2
I1022 21:44:52.443011 25692 net.cpp:408] pool2 -> pool2
I1022 21:44:52.443051 25692 net.cpp:150] Setting up pool2
I1022 21:44:52.443060 25692 net.cpp:157] Top shape: 128 256 13 13 (5537792)
I1022 21:44:52.443064 25692 net.cpp:165] Memory required for data: 869841920
I1022 21:44:52.443068 25692 layer_factory.hpp:77] Creating layer conv3
I1022 21:44:52.443083 25692 net.cpp:100] Creating Layer conv3
I1022 21:44:52.443087 25692 net.cpp:434] conv3 <- pool2
I1022 21:44:52.443094 25692 net.cpp:408] conv3 -> conv3
I1022 21:44:52.457006 25692 net.cpp:150] Setting up conv3
I1022 21:44:52.457046 25692 net.cpp:157] Top shape: 128 384 13 13 (8306688)
I1022 21:44:52.457051 25692 net.cpp:165] Memory required for data: 903068672
I1022 21:44:52.457074 25692 layer_factory.hpp:77] Creating layer relu3
I1022 21:44:52.457089 25692 net.cpp:100] Creating Layer relu3
I1022 21:44:52.457096 25692 net.cpp:434] relu3 <- conv3
I1022 21:44:52.457106 25692 net.cpp:395] relu3 -> conv3 (in-place)
I1022 21:44:52.457584 25692 net.cpp:150] Setting up relu3
I1022 21:44:52.457593 25692 net.cpp:157] Top shape: 128 384 13 13 (8306688)
I1022 21:44:52.457598 25692 net.cpp:165] Memory required for data: 936295424
I1022 21:44:52.457603 25692 layer_factory.hpp:77] Creating layer conv4
I1022 21:44:52.457617 25692 net.cpp:100] Creating Layer conv4
I1022 21:44:52.457623 25692 net.cpp:434] conv4 <- conv3
I1022 21:44:52.457633 25692 net.cpp:408] conv4 -> conv4
I1022 21:44:52.469138 25692 net.cpp:150] Setting up conv4
I1022 21:44:52.469172 25692 net.cpp:157] Top shape: 128 384 13 13 (8306688)
I1022 21:44:52.469177 25692 net.cpp:165] Memory required for data: 969522176
I1022 21:44:52.469193 25692 layer_factory.hpp:77] Creating layer relu4
I1022 21:44:52.469229 25692 net.cpp:100] Creating Layer relu4
I1022 21:44:52.469238 25692 net.cpp:434] relu4 <- conv4
I1022 21:44:52.469250 25692 net.cpp:395] relu4 -> conv4 (in-place)
I1022 21:44:52.469717 25692 net.cpp:150] Setting up relu4
I1022 21:44:52.469729 25692 net.cpp:157] Top shape: 128 384 13 13 (8306688)
I1022 21:44:52.469734 25692 net.cpp:165] Memory required for data: 1002748928
I1022 21:44:52.469739 25692 layer_factory.hpp:77] Creating layer conv5
I1022 21:44:52.469753 25692 net.cpp:100] Creating Layer conv5
I1022 21:44:52.469769 25692 net.cpp:434] conv5 <- conv4
I1022 21:44:52.469779 25692 net.cpp:408] conv5 -> conv5
I1022 21:44:52.478735 25692 net.cpp:150] Setting up conv5
I1022 21:44:52.478770 25692 net.cpp:157] Top shape: 128 256 13 13 (5537792)
I1022 21:44:52.478775 25692 net.cpp:165] Memory required for data: 1024900096
I1022 21:44:52.478802 25692 layer_factory.hpp:77] Creating layer relu5
I1022 21:44:52.478819 25692 net.cpp:100] Creating Layer relu5
I1022 21:44:52.478827 25692 net.cpp:434] relu5 <- conv5
I1022 21:44:52.478837 25692 net.cpp:395] relu5 -> conv5 (in-place)
I1022 21:44:52.479043 25692 net.cpp:150] Setting up relu5
I1022 21:44:52.479051 25692 net.cpp:157] Top shape: 128 256 13 13 (5537792)
I1022 21:44:52.479056 25692 net.cpp:165] Memory required for data: 1047051264
I1022 21:44:52.479060 25692 layer_factory.hpp:77] Creating layer pool5
I1022 21:44:52.479074 25692 net.cpp:100] Creating Layer pool5
I1022 21:44:52.479082 25692 net.cpp:434] pool5 <- conv5
I1022 21:44:52.479094 25692 net.cpp:408] pool5 -> pool5
I1022 21:44:52.479145 25692 net.cpp:150] Setting up pool5
I1022 21:44:52.479152 25692 net.cpp:157] Top shape: 128 256 6 6 (1179648)
I1022 21:44:52.479156 25692 net.cpp:165] Memory required for data: 1051769856
I1022 21:44:52.479161 25692 layer_factory.hpp:77] Creating layer fc6
I1022 21:44:52.479171 25692 net.cpp:100] Creating Layer fc6
I1022 21:44:52.479176 25692 net.cpp:434] fc6 <- pool5
I1022 21:44:52.479184 25692 net.cpp:408] fc6 -> fc6
I1022 21:44:52.971539 25692 net.cpp:150] Setting up fc6
I1022 21:44:52.971592 25692 net.cpp:157] Top shape: 128 4096 (524288)
I1022 21:44:52.971598 25692 net.cpp:165] Memory required for data: 1053867008
I1022 21:44:52.971616 25692 layer_factory.hpp:77] Creating layer relu6
I1022 21:44:52.971633 25692 net.cpp:100] Creating Layer relu6
I1022 21:44:52.971640 25692 net.cpp:434] relu6 <- fc6
I1022 21:44:52.971649 25692 net.cpp:395] relu6 -> fc6 (in-place)
I1022 21:44:52.971953 25692 net.cpp:150] Setting up relu6
I1022 21:44:52.971962 25692 net.cpp:157] Top shape: 128 4096 (524288)
I1022 21:44:52.971966 25692 net.cpp:165] Memory required for data: 1055964160
I1022 21:44:52.971971 25692 layer_factory.hpp:77] Creating layer drop6
I1022 21:44:52.971982 25692 net.cpp:100] Creating Layer drop6
I1022 21:44:52.971987 25692 net.cpp:434] drop6 <- fc6
I1022 21:44:52.971992 25692 net.cpp:395] drop6 -> fc6 (in-place)
I1022 21:44:52.972019 25692 net.cpp:150] Setting up drop6
I1022 21:44:52.972028 25692 net.cpp:157] Top shape: 128 4096 (524288)
I1022 21:44:52.972031 25692 net.cpp:165] Memory required for data: 1058061312
I1022 21:44:52.972036 25692 layer_factory.hpp:77] Creating layer fc7
I1022 21:44:52.972045 25692 net.cpp:100] Creating Layer fc7
I1022 21:44:52.972050 25692 net.cpp:434] fc7 <- fc6
I1022 21:44:52.972061 25692 net.cpp:408] fc7 -> fc7
I1022 21:44:53.190933 25692 net.cpp:150] Setting up fc7
I1022 21:44:53.190974 25692 net.cpp:157] Top shape: 128 4096 (524288)
I1022 21:44:53.190979 25692 net.cpp:165] Memory required for data: 1060158464
I1022 21:44:53.191000 25692 layer_factory.hpp:77] Creating layer relu7
I1022 21:44:53.191020 25692 net.cpp:100] Creating Layer relu7
I1022 21:44:53.191025 25692 net.cpp:434] relu7 <- fc7
I1022 21:44:53.191035 25692 net.cpp:395] relu7 -> fc7 (in-place)
I1022 21:44:53.191330 25692 net.cpp:150] Setting up relu7
I1022 21:44:53.191339 25692 net.cpp:157] Top shape: 128 4096 (524288)
I1022 21:44:53.191344 25692 net.cpp:165] Memory required for data: 1062255616
I1022 21:44:53.191349 25692 layer_factory.hpp:77] Creating layer drop7
I1022 21:44:53.191378 25692 net.cpp:100] Creating Layer drop7
I1022 21:44:53.191383 25692 net.cpp:434] drop7 <- fc7
I1022 21:44:53.191392 25692 net.cpp:395] drop7 -> fc7 (in-place)
I1022 21:44:53.191414 25692 net.cpp:150] Setting up drop7
I1022 21:44:53.191422 25692 net.cpp:157] Top shape: 128 4096 (524288)
I1022 21:44:53.191427 25692 net.cpp:165] Memory required for data: 1064352768
I1022 21:44:53.191431 25692 layer_factory.hpp:77] Creating layer fc7_drop7_0_split
I1022 21:44:53.191439 25692 net.cpp:100] Creating Layer fc7_drop7_0_split
I1022 21:44:53.191443 25692 net.cpp:434] fc7_drop7_0_split <- fc7
I1022 21:44:53.191450 25692 net.cpp:408] fc7_drop7_0_split -> fc7_drop7_0_split_0
I1022 21:44:53.191468 25692 net.cpp:408] fc7_drop7_0_split -> fc7_drop7_0_split_1
I1022 21:44:53.191509 25692 net.cpp:150] Setting up fc7_drop7_0_split
I1022 21:44:53.191519 25692 net.cpp:157] Top shape: 128 4096 (524288)
I1022 21:44:53.191524 25692 net.cpp:157] Top shape: 128 4096 (524288)
I1022 21:44:53.191529 25692 net.cpp:165] Memory required for data: 1068547072
I1022 21:44:53.191534 25692 layer_factory.hpp:77] Creating layer my-fc8
I1022 21:44:53.191542 25692 net.cpp:100] Creating Layer my-fc8
I1022 21:44:53.191550 25692 net.cpp:434] my-fc8 <- fc7_drop7_0_split_0
I1022 21:44:53.191556 25692 net.cpp:408] my-fc8 -> my-fc8
I1022 21:44:53.755801 25692 net.cpp:150] Setting up my-fc8
I1022 21:44:53.755853 25692 net.cpp:157] Top shape: 128 10572 (1353216)
I1022 21:44:53.755858 25692 net.cpp:165] Memory required for data: 1073959936
I1022 21:44:53.755878 25692 layer_factory.hpp:77] Creating layer loss
I1022 21:44:53.755897 25692 net.cpp:100] Creating Layer loss
I1022 21:44:53.755904 25692 net.cpp:434] loss <- my-fc8
I1022 21:44:53.755913 25692 net.cpp:434] loss <- label_data_1_split_0
I1022 21:44:53.755923 25692 net.cpp:408] loss -> loss
…
