…
net: "./train_val.prototxt"
train_state {
  level: 0
  stage: ""
}
I0921 22:23:10.339372  3043 solver.cpp:87] Creating training net from net file: ./train_val.prototxt
I0921 22:23:10.340826  3043 net.cpp:51] Initializing net from parameters: 
name: "AlexNet"
state {
  phase: TRAIN
  level: 0
  stage: ""
}
layer {
  name: "data"
  type: "Data"
  top: "data"
  top: "label"
  include {
    phase: TRAIN
  }
  transform_param {
    mirror: true
    crop_size: 227
  }
  data_param {
    source: "/home/hzzone/1tb/data/train_lmdb"
    batch_size: 128
    backend: LMDB
  }
}
layer {
  name: "conv1"
  type: "Convolution"
  bottom: "data"
  top: "conv1"
  param {
    lr_mult: 1
    decay_mult: 1
  }
  param {
    lr_mult: 2
    decay_mult: 0
  }
  convolution_param {
    num_output: 96
    kernel_size: 11
    stride: 4
    weight_filler {
      type: "gaussian"
      std: 0.01
    }
    bias_filler {
      type: "constant"
      value: 0
    }
  }
}
layer {
  name: "relu1"
  type: "ReLU"
  bottom: "conv1"
  top: "conv1"
}
layer {
  name: "norm1"
  type: "LRN"
  bottom: "conv1"
  top: "norm1"
  lrn_param {
    local_size: 5
    alpha: 0.0001
    beta: 0.75
  }
}
layer {
  name: "pool1"
  type: "Pooling"
  bottom: "norm1"
  top: "pool1"
  pooling_param {
    pool: MAX
    kernel_size: 3
    stride: 2
  }
}
layer {
  name: "conv2"
  type: "Convolution"
  bottom: "pool1"
  top: "conv2"
  param {
    lr_mult: 1
    decay_mult: 1
  }
  param {
    lr_mult: 2
    decay_mult: 0
  }
  convolution_param {
    num_output: 256
    pad: 2
    kernel_size: 5
    group: 2
    weight_filler {
      type: "gaussian"
      std: 0.01
    }
    bias_filler {
      type: "constant"
      value: 0.1
    }
  }
}
layer {
  name: "relu2"
  type: "ReLU"
  bottom: "conv2"
  top: "conv2"
}
layer {
  name: "norm2"
  type: "LRN"
  bottom: "conv2"
  top: "norm2"
  lrn_param {
    local_size: 5
    alpha: 0.0001
    beta: 0.75
  }
}
layer {
  name: "pool2"
  type: "Pooling"
  bottom: "norm2"
  top: "pool2"
  pooling_param {
    pool: MAX
    kernel_size: 3
    stride: 2
  }
}
layer {
  name: "conv3"
  type: "Convolution"
  bottom: "pool2"
  top: "conv3"
  param {
    lr_mult: 1
    decay_mult: 1
  }
  param {
    lr_mult: 2
    decay_mult: 0
  }
  convolution_param {
    num_output: 384
    pad: 1
    kernel_size: 3
    weight_filler {
      type: "gaussian"
      std: 0.01
    }
    bias_filler {
      type: "constant"
      value: 0
    }
  }
}
layer {
  name: "relu3"
  type: "ReLU"
  bottom: "conv3"
  top: "conv3"
}
layer {
  name: "conv4"
  type: "Convolution"
  bottom: "conv3"
  top: "conv4"
  param {
    lr_mult: 1
    decay_mult: 1
  }
  param {
    lr_mult: 2
    decay_mult: 0
  }
  convolution_param {
    num_output: 384
    pad: 1
    kernel_size: 3
    group: 2
    weight_filler {
      type: "gaussian"
      std: 0.01
    }
    bias_filler {
      type: "constant"
      value: 0.1
    }
  }
}
layer {
  name: "relu4"
  type: "ReLU"
  bottom: "conv4"
  top: "conv4"
}
layer {
  name: "conv5"
  type: "Convolution"
  bottom: "conv4"
  top: "conv5"
  param {
    lr_mult: 1
    decay_mult: 1
  }
  param {
    lr_mult: 2
    decay_mult: 0
  }
  convolution_param {
    num_output: 256
    pad: 1
    kernel_size: 3
    group: 2
    weight_filler {
      type: "gaussian"
      std: 0.01
    }
    bias_filler {
      type: "constant"
      value: 0.1
    }
  }
}
layer {
  name: "relu5"
  type: "ReLU"
  bottom: "conv5"
  top: "conv5"
}
layer {
  name: "pool5"
  type: "Pooling"
  bottom: "conv5"
  top: "pool5"
  pooling_param {
    pool: MAX
    kernel_size: 3
    stride: 2
  }
}
layer {
  name: "fc6"
  type: "InnerProduct"
  bottom: "pool5"
  top: "fc6"
  param {
    lr_mult: 1
    decay_mult: 1
  }
  param {
    lr_mult: 2
    decay_mult: 0
  }
  inner_product_param {
    num_output: 4096
    weight_filler {
      type: "gaussian"
      std: 0.005
    }
    bias_filler {
      type: "constant"
      value: 0.1
    }
  }
}
layer {
  name: "relu6"
  type: "ReLU"
  bottom: "fc6"
  top: "fc6"
}
layer {
  name: "drop6"
  type: "Dropout"
  bottom: "fc6"
  top: "fc6"
  dropout_param {
    dropout_ratio: 0.5
  }
}
layer {
  name: "fc7"
  type: "InnerProduct"
  bottom: "fc6"
  top: "fc7"
  param {
    lr_mult: 1
    decay_mult: 1
  }
  param {
    lr_mult: 2
    decay_mult: 0
  }
  inner_product_param {
    num_output: 4096
    weight_filler {
      type: "gaussian"
      std: 0.005
    }
    bias_filler {
      type: "constant"
      value: 0.1
    }
  }
}
layer {
  name: "relu7"
  type: "ReLU"
  bottom: "fc7"
  top: "fc7"
}
layer {
  name: "drop7"
  type: "Dropout"
  bottom: "fc7"
  top: "fc7"
  dropout_param {
    dropout_ratio: 0.5
  }
}
layer {
  name: "fc8"
  type: "InnerProduct"
  bottom: "fc7"
  top: "fc8"
  param {
    lr_mult: 1
    decay_mult: 1
  }
  param {
    lr_mult: 2
    decay_mult: 0
  }
  inner_product_param {
    num_output: 10572
    weight_filler {
      type: "gaussian"
      std: 0.01
    }
    bias_filler {
      type: "constant"
      value: 0
    }
  }
}
layer {
  name: "loss"
  type: "SoftmaxWithLoss"
  bottom: "fc8"
  bottom: "label"
  top: "loss"
}
I0921 22:23:10.341317  3043 layer_factory.hpp:77] Creating layer data
I0921 22:23:10.361912  3043 db_lmdb.cpp:35] Opened lmdb /home/hzzone/1tb/data/train_lmdb
I0921 22:23:10.404003  3043 net.cpp:84] Creating Layer data
I0921 22:23:10.404068  3043 net.cpp:380] data -> data
I0921 22:23:10.404129  3043 net.cpp:380] data -> label
I0921 22:23:10.418283  3043 data_layer.cpp:45] output data size: 128,3,227,227
I0921 22:23:10.624335  3043 net.cpp:122] Setting up data
I0921 22:23:10.624384  3043 net.cpp:129] Top shape: 128 3 227 227 (19787136)
I0921 22:23:10.624393  3043 net.cpp:129] Top shape: 128 (128)
I0921 22:23:10.624398  3043 net.cpp:137] Memory required for data: 79149056
I0921 22:23:10.624413  3043 layer_factory.hpp:77] Creating layer conv1
I0921 22:23:10.624444  3043 net.cpp:84] Creating Layer conv1
I0921 22:23:10.624454  3043 net.cpp:406] conv1 <- data
I0921 22:23:10.624472  3043 net.cpp:380] conv1 -> conv1
I0921 22:23:11.187228  3043 net.cpp:122] Setting up conv1
I0921 22:23:11.187276  3043 net.cpp:129] Top shape: 128 96 55 55 (37171200)
I0921 22:23:11.187283  3043 net.cpp:137] Memory required for data: 227833856
I0921 22:23:11.187321  3043 layer_factory.hpp:77] Creating layer relu1
I0921 22:23:11.187355  3043 net.cpp:84] Creating Layer relu1
I0921 22:23:11.187368  3043 net.cpp:406] relu1 <- conv1
I0921 22:23:11.187379  3043 net.cpp:367] relu1 -> conv1 (in-place)
I0921 22:23:11.187662  3043 net.cpp:122] Setting up relu1
I0921 22:23:11.187671  3043 net.cpp:129] Top shape: 128 96 55 55 (37171200)
I0921 22:23:11.187678  3043 net.cpp:137] Memory required for data: 376518656
I0921 22:23:11.187685  3043 layer_factory.hpp:77] Creating layer norm1
I0921 22:23:11.187697  3043 net.cpp:84] Creating Layer norm1
I0921 22:23:11.187705  3043 net.cpp:406] norm1 <- conv1
I0921 22:23:11.187716  3043 net.cpp:380] norm1 -> norm1
I0921 22:23:11.188107  3043 net.cpp:122] Setting up norm1
I0921 22:23:11.188124  3043 net.cpp:129] Top shape: 128 96 55 55 (37171200)
I0921 22:23:11.188133  3043 net.cpp:137] Memory required for data: 525203456
I0921 22:23:11.188140  3043 layer_factory.hpp:77] Creating layer pool1
I0921 22:23:11.188154  3043 net.cpp:84] Creating Layer pool1
I0921 22:23:11.188163  3043 net.cpp:406] pool1 <- norm1
I0921 22:23:11.188174  3043 net.cpp:380] pool1 -> pool1
I0921 22:23:11.188243  3043 net.cpp:122] Setting up pool1
I0921 22:23:11.188256  3043 net.cpp:129] Top shape: 128 96 27 27 (8957952)
I0921 22:23:11.188262  3043 net.cpp:137] Memory required for data: 561035264
I0921 22:23:11.188269  3043 layer_factory.hpp:77] Creating layer conv2
I0921 22:23:11.188288  3043 net.cpp:84] Creating Layer conv2
I0921 22:23:11.188308  3043 net.cpp:406] conv2 <- pool1
I0921 22:23:11.188335  3043 net.cpp:380] conv2 -> conv2
I0921 22:23:11.198984  3043 net.cpp:122] Setting up conv2
I0921 22:23:11.199035  3043 net.cpp:129] Top shape: 128 256 27 27 (23887872)
I0921 22:23:11.199043  3043 net.cpp:137] Memory required for data: 656586752
I0921 22:23:11.199067  3043 layer_factory.hpp:77] Creating layer relu2
I0921 22:23:11.199084  3043 net.cpp:84] Creating Layer relu2
I0921 22:23:11.199092  3043 net.cpp:406] relu2 <- conv2
I0921 22:23:11.199103  3043 net.cpp:367] relu2 -> conv2 (in-place)
I0921 22:23:11.199379  3043 net.cpp:122] Setting up relu2
I0921 22:23:11.199389  3043 net.cpp:129] Top shape: 128 256 27 27 (23887872)
I0921 22:23:11.199395  3043 net.cpp:137] Memory required for data: 752138240
I0921 22:23:11.199401  3043 layer_factory.hpp:77] Creating layer norm2
I0921 22:23:11.199412  3043 net.cpp:84] Creating Layer norm2
I0921 22:23:11.199419  3043 net.cpp:406] norm2 <- conv2
I0921 22:23:11.199429  3043 net.cpp:380] norm2 -> norm2
I0921 22:23:11.200093  3043 net.cpp:122] Setting up norm2
I0921 22:23:11.200105  3043 net.cpp:129] Top shape: 128 256 27 27 (23887872)
I0921 22:23:11.200112  3043 net.cpp:137] Memory required for data: 847689728
I0921 22:23:11.200119  3043 layer_factory.hpp:77] Creating layer pool2
I0921 22:23:11.200131  3043 net.cpp:84] Creating Layer pool2
I0921 22:23:11.200137  3043 net.cpp:406] pool2 <- norm2
I0921 22:23:11.200147  3043 net.cpp:380] pool2 -> pool2
I0921 22:23:11.200192  3043 net.cpp:122] Setting up pool2
I0921 22:23:11.200201  3043 net.cpp:129] Top shape: 128 256 13 13 (5537792)
I0921 22:23:11.200206  3043 net.cpp:137] Memory required for data: 869840896
I0921 22:23:11.200212  3043 layer_factory.hpp:77] Creating layer conv3
I0921 22:23:11.200228  3043 net.cpp:84] Creating Layer conv3
I0921 22:23:11.200234  3043 net.cpp:406] conv3 <- pool2
I0921 22:23:11.200243  3043 net.cpp:380] conv3 -> conv3
I0921 22:23:11.220288  3043 net.cpp:122] Setting up conv3
I0921 22:23:11.220327  3043 net.cpp:129] Top shape: 128 384 13 13 (8306688)
I0921 22:23:11.220335  3043 net.cpp:137] Memory required for data: 903067648
I0921 22:23:11.220358  3043 layer_factory.hpp:77] Creating layer relu3
I0921 22:23:11.220373  3043 net.cpp:84] Creating Layer relu3
I0921 22:23:11.220381  3043 net.cpp:406] relu3 <- conv3
I0921 22:23:11.220396  3043 net.cpp:367] relu3 -> conv3 (in-place)
I0921 22:23:11.220968  3043 net.cpp:122] Setting up relu3
I0921 22:23:11.220984  3043 net.cpp:129] Top shape: 128 384 13 13 (8306688)
I0921 22:23:11.220993  3043 net.cpp:137] Memory required for data: 936294400
I0921 22:23:11.221000  3043 layer_factory.hpp:77] Creating layer conv4
I0921 22:23:11.221020  3043 net.cpp:84] Creating Layer conv4
I0921 22:23:11.221029  3043 net.cpp:406] conv4 <- conv3
I0921 22:23:11.221040  3043 net.cpp:380] conv4 -> conv4
I0921 22:23:11.234130  3043 net.cpp:122] Setting up conv4
I0921 22:23:11.234176  3043 net.cpp:129] Top shape: 128 384 13 13 (8306688)
I0921 22:23:11.234184  3043 net.cpp:137] Memory required for data: 969521152
I0921 22:23:11.234199  3043 layer_factory.hpp:77] Creating layer relu4
I0921 22:23:11.234215  3043 net.cpp:84] Creating Layer relu4
I0921 22:23:11.234223  3043 net.cpp:406] relu4 <- conv4
I0921 22:23:11.234238  3043 net.cpp:367] relu4 -> conv4 (in-place)
I0921 22:23:11.234741  3043 net.cpp:122] Setting up relu4
I0921 22:23:11.234755  3043 net.cpp:129] Top shape: 128 384 13 13 (8306688)
I0921 22:23:11.234760  3043 net.cpp:137] Memory required for data: 1002747904
I0921 22:23:11.234767  3043 layer_factory.hpp:77] Creating layer conv5
I0921 22:23:11.234783  3043 net.cpp:84] Creating Layer conv5
I0921 22:23:11.234789  3043 net.cpp:406] conv5 <- conv4
I0921 22:23:11.234799  3043 net.cpp:380] conv5 -> conv5
I0921 22:23:11.244331  3043 net.cpp:122] Setting up conv5
I0921 22:23:11.244379  3043 net.cpp:129] Top shape: 128 256 13 13 (5537792)
I0921 22:23:11.244386  3043 net.cpp:137] Memory required for data: 1024899072
I0921 22:23:11.244410  3043 layer_factory.hpp:77] Creating layer relu5
I0921 22:23:11.244437  3043 net.cpp:84] Creating Layer relu5
I0921 22:23:11.244455  3043 net.cpp:406] relu5 <- conv5
I0921 22:23:11.244480  3043 net.cpp:367] relu5 -> conv5 (in-place)
I0921 22:23:11.244688  3043 net.cpp:122] Setting up relu5
I0921 22:23:11.244695  3043 net.cpp:129] Top shape: 128 256 13 13 (5537792)
I0921 22:23:11.244700  3043 net.cpp:137] Memory required for data: 1047050240
I0921 22:23:11.244705  3043 layer_factory.hpp:77] Creating layer pool5
I0921 22:23:11.244714  3043 net.cpp:84] Creating Layer pool5
I0921 22:23:11.244720  3043 net.cpp:406] pool5 <- conv5
I0921 22:23:11.244729  3043 net.cpp:380] pool5 -> pool5
I0921 22:23:11.244776  3043 net.cpp:122] Setting up pool5
I0921 22:23:11.244784  3043 net.cpp:129] Top shape: 128 256 6 6 (1179648)
I0921 22:23:11.244789  3043 net.cpp:137] Memory required for data: 1051768832
I0921 22:23:11.244794  3043 layer_factory.hpp:77] Creating layer fc6
I0921 22:23:11.244812  3043 net.cpp:84] Creating Layer fc6
I0921 22:23:11.244817  3043 net.cpp:406] fc6 <- pool5
I0921 22:23:11.244824  3043 net.cpp:380] fc6 -> fc6
I0921 22:23:11.747184  3043 net.cpp:122] Setting up fc6
I0921 22:23:11.747242  3043 net.cpp:129] Top shape: 128 4096 (524288)
I0921 22:23:11.747251  3043 net.cpp:137] Memory required for data: 1053865984
I0921 22:23:11.747267  3043 layer_factory.hpp:77] Creating layer relu6
I0921 22:23:11.747282  3043 net.cpp:84] Creating Layer relu6
I0921 22:23:11.747289  3043 net.cpp:406] relu6 <- fc6
I0921 22:23:11.747303  3043 net.cpp:367] relu6 -> fc6 (in-place)
I0921 22:23:11.747589  3043 net.cpp:122] Setting up relu6
I0921 22:23:11.747597  3043 net.cpp:129] Top shape: 128 4096 (524288)
I0921 22:23:11.747603  3043 net.cpp:137] Memory required for data: 1055963136
I0921 22:23:11.747608  3043 layer_factory.hpp:77] Creating layer drop6
I0921 22:23:11.747618  3043 net.cpp:84] Creating Layer drop6
I0921 22:23:11.747623  3043 net.cpp:406] drop6 <- fc6
I0921 22:23:11.747632  3043 net.cpp:367] drop6 -> fc6 (in-place)
I0921 22:23:11.747658  3043 net.cpp:122] Setting up drop6
I0921 22:23:11.747664  3043 net.cpp:129] Top shape: 128 4096 (524288)
I0921 22:23:11.747670  3043 net.cpp:137] Memory required for data: 1058060288
I0921 22:23:11.747675  3043 layer_factory.hpp:77] Creating layer fc7
I0921 22:23:11.747689  3043 net.cpp:84] Creating Layer fc7
I0921 22:23:11.747695  3043 net.cpp:406] fc7 <- fc6
I0921 22:23:11.747704  3043 net.cpp:380] fc7 -> fc7
I0921 22:23:11.967856  3043 net.cpp:122] Setting up fc7
I0921 22:23:11.967916  3043 net.cpp:129] Top shape: 128 4096 (524288)
I0921 22:23:11.967921  3043 net.cpp:137] Memory required for data: 1060157440
I0921 22:23:11.967937  3043 layer_factory.hpp:77] Creating layer relu7
I0921 22:23:11.967952  3043 net.cpp:84] Creating Layer relu7
I0921 22:23:11.967960  3043 net.cpp:406] relu7 <- fc7
I0921 22:23:11.967972  3043 net.cpp:367] relu7 -> fc7 (in-place)
I0921 22:23:11.968257  3043 net.cpp:122] Setting up relu7
I0921 22:23:11.968267  3043 net.cpp:129] Top shape: 128 4096 (524288)
I0921 22:23:11.968273  3043 net.cpp:137] Memory required for data: 1062254592
I0921 22:23:11.968278  3043 layer_factory.hpp:77] Creating layer drop7
I0921 22:23:11.968288  3043 net.cpp:84] Creating Layer drop7
I0921 22:23:11.968293  3043 net.cpp:406] drop7 <- fc7
I0921 22:23:11.968300  3043 net.cpp:367] drop7 -> fc7 (in-place)
I0921 22:23:11.968322  3043 net.cpp:122] Setting up drop7
I0921 22:23:11.968329  3043 net.cpp:129] Top shape: 128 4096 (524288)
I0921 22:23:11.968334  3043 net.cpp:137] Memory required for data: 1064351744
I0921 22:23:11.968339  3043 layer_factory.hpp:77] Creating layer fc8
I0921 22:23:11.968349  3043 net.cpp:84] Creating Layer fc8
I0921 22:23:11.968355  3043 net.cpp:406] fc8 <- fc7
I0921 22:23:11.968364  3043 net.cpp:380] fc8 -> fc8
I0921 22:23:12.542738  3043 net.cpp:122] Setting up fc8
I0921 22:23:12.542793  3043 net.cpp:129] Top shape: 128 10572 (1353216)
I0921 22:23:12.542799  3043 net.cpp:137] Memory required for data: 1069764608
I0921 22:23:12.542816  3043 layer_factory.hpp:77] Creating layer loss
I0921 22:23:12.542831  3043 net.cpp:84] Creating Layer loss
I0921 22:23:12.542850  3043 net.cpp:406] loss <- fc8
I0921 22:23:12.542870  3043 net.cpp:406] loss <- label
I0921 22:23:12.542882  3043 net.cpp:380] loss -> loss
I0921 22:23:12.542907  3043 layer_factory.hpp:77] Creating layer loss
…
