…
net: "./train_val.prototxt"
train_state {
  level: 0
  stage: ""
}
I1005 22:46:35.565953 21476 solver.cpp:87] Creating training net from net file: ./train_val.prototxt
I1005 22:46:35.566769 21476 net.cpp:51] Initializing net from parameters: 
name: "CaffeNet"
state {
  phase: TRAIN
  level: 0
  stage: ""
}
layer {
  name: "data"
  type: "Data"
  top: "data"
  top: "label"
  include {
    phase: TRAIN
  }
  transform_param {
    mirror: true
    crop_size: 227
  }
  data_param {
    source: "/home/hzzone/1tb/data/train_lmdb"
    batch_size: 128
    backend: LMDB
  }
}
layer {
  name: "conv1"
  type: "Convolution"
  bottom: "data"
  top: "conv1"
  param {
    lr_mult: 1
    decay_mult: 1
  }
  param {
    lr_mult: 2
    decay_mult: 0
  }
  convolution_param {
    num_output: 96
    kernel_size: 11
    stride: 4
    weight_filler {
      type: "gaussian"
      std: 0.01
    }
    bias_filler {
      type: "constant"
      value: 0
    }
  }
}
layer {
  name: "relu1"
  type: "ReLU"
  bottom: "conv1"
  top: "conv1"
}
layer {
  name: "pool1"
  type: "Pooling"
  bottom: "conv1"
  top: "pool1"
  pooling_param {
    pool: MAX
    kernel_size: 3
    stride: 2
  }
}
layer {
  name: "norm1"
  type: "LRN"
  bottom: "pool1"
  top: "norm1"
  lrn_param {
    local_size: 5
    alpha: 0.0001
    beta: 0.75
  }
}
layer {
  name: "conv2"
  type: "Convolution"
  bottom: "norm1"
  top: "conv2"
  param {
    lr_mult: 1
    decay_mult: 1
  }
  param {
    lr_mult: 2
    decay_mult: 0
  }
  convolution_param {
    num_output: 256
    pad: 2
    kernel_size: 5
    group: 2
    weight_filler {
      type: "gaussian"
      std: 0.01
    }
    bias_filler {
      type: "constant"
      value: 1
    }
  }
}
layer {
  name: "relu2"
  type: "ReLU"
  bottom: "conv2"
  top: "conv2"
}
layer {
  name: "pool2"
  type: "Pooling"
  bottom: "conv2"
  top: "pool2"
  pooling_param {
    pool: MAX
    kernel_size: 3
    stride: 2
  }
}
layer {
  name: "norm2"
  type: "LRN"
  bottom: "pool2"
  top: "norm2"
  lrn_param {
    local_size: 5
    alpha: 0.0001
    beta: 0.75
  }
}
layer {
  name: "conv3"
  type: "Convolution"
  bottom: "norm2"
  top: "conv3"
  param {
    lr_mult: 1
    decay_mult: 1
  }
  param {
    lr_mult: 2
    decay_mult: 0
  }
  convolution_param {
    num_output: 384
    pad: 1
    kernel_size: 3
    weight_filler {
      type: "gaussian"
      std: 0.01
    }
    bias_filler {
      type: "constant"
      value: 0
    }
  }
}
layer {
  name: "relu3"
  type: "ReLU"
  bottom: "conv3"
  top: "conv3"
}
layer {
  name: "conv4"
  type: "Convolution"
  bottom: "conv3"
  top: "conv4"
  param {
    lr_mult: 1
    decay_mult: 1
  }
  param {
    lr_mult: 2
    decay_mult: 0
  }
  convolution_param {
    num_output: 384
    pad: 1
    kernel_size: 3
    group: 2
    weight_filler {
      type: "gaussian"
      std: 0.01
    }
    bias_filler {
      type: "constant"
      value: 1
    }
  }
}
layer {
  name: "relu4"
  type: "ReLU"
  bottom: "conv4"
  top: "conv4"
}
layer {
  name: "conv5"
  type: "Convolution"
  bottom: "conv4"
  top: "conv5"
  param {
    lr_mult: 1
    decay_mult: 1
  }
  param {
    lr_mult: 2
    decay_mult: 0
  }
  convolution_param {
    num_output: 256
    pad: 1
    kernel_size: 3
    group: 2
    weight_filler {
      type: "gaussian"
      std: 0.01
    }
    bias_filler {
      type: "constant"
      value: 1
    }
  }
}
layer {
  name: "relu5"
  type: "ReLU"
  bottom: "conv5"
  top: "conv5"
}
layer {
  name: "pool5"
  type: "Pooling"
  bottom: "conv5"
  top: "pool5"
  pooling_param {
    pool: MAX
    kernel_size: 3
    stride: 2
  }
}
layer {
  name: "fc6"
  type: "InnerProduct"
  bottom: "pool5"
  top: "fc6"
  param {
    lr_mult: 1
    decay_mult: 1
  }
  param {
    lr_mult: 2
    decay_mult: 0
  }
  inner_product_param {
    num_output: 4096
    weight_filler {
      type: "gaussian"
      std: 0.005
    }
    bias_filler {
      type: "constant"
      value: 1
    }
  }
}
layer {
  name: "relu6"
  type: "ReLU"
  bottom: "fc6"
  top: "fc6"
}
layer {
  name: "drop6"
  type: "Dropout"
  bottom: "fc6"
  top: "fc6"
  dropout_param {
    dropout_ratio: 0.5
  }
}
layer {
  name: "fc7"
  type: "InnerProduct"
  bottom: "fc6"
  top: "fc7"
  param {
    lr_mult: 1
    decay_mult: 1
  }
  param {
    lr_mult: 2
    decay_mult: 0
  }
  inner_product_param {
    num_output: 4096
    weight_filler {
      type: "gaussian"
      std: 0.005
    }
    bias_filler {
      type: "constant"
      value: 1
    }
  }
}
layer {
  name: "relu7"
  type: "ReLU"
  bottom: "fc7"
  top: "fc7"
}
layer {
  name: "drop7"
  type: "Dropout"
  bottom: "fc7"
  top: "fc7"
  dropout_param {
    dropout_ratio: 0.5
  }
}
layer {
  name: "fc8"
  type: "InnerProduct"
  bottom: "fc7"
  top: "fc8"
  param {
    lr_mult: 1
    decay_mult: 1
  }
  param {
    lr_mult: 2
    decay_mult: 0
  }
  inner_product_param {
    num_output: 10572
    weight_filler {
      type: "gaussian"
      std: 0.01
    }
    bias_filler {
      type: "constant"
      value: 0
    }
  }
}
layer {
  name: "loss"
  type: "SoftmaxWithLoss"
  bottom: "fc8"
  bottom: "label"
  top: "loss"
}
I1005 22:46:35.566898 21476 layer_factory.hpp:77] Creating layer data
I1005 22:46:35.567034 21476 db_lmdb.cpp:35] Opened lmdb /home/hzzone/1tb/data/train_lmdb
I1005 22:46:35.567073 21476 net.cpp:84] Creating Layer data
I1005 22:46:35.567082 21476 net.cpp:380] data -> data
I1005 22:46:35.567106 21476 net.cpp:380] data -> label
I1005 22:46:35.568841 21476 data_layer.cpp:45] output data size: 128,3,227,227
I1005 22:46:35.788285 21476 net.cpp:122] Setting up data
I1005 22:46:35.788336 21476 net.cpp:129] Top shape: 128 3 227 227 (19787136)
I1005 22:46:35.788347 21476 net.cpp:129] Top shape: 128 (128)
I1005 22:46:35.788352 21476 net.cpp:137] Memory required for data: 79149056
I1005 22:46:35.788368 21476 layer_factory.hpp:77] Creating layer conv1
I1005 22:46:35.788403 21476 net.cpp:84] Creating Layer conv1
I1005 22:46:35.788411 21476 net.cpp:406] conv1 <- data
I1005 22:46:35.788431 21476 net.cpp:380] conv1 -> conv1
I1005 22:46:36.159318 21476 net.cpp:122] Setting up conv1
I1005 22:46:36.159360 21476 net.cpp:129] Top shape: 128 96 55 55 (37171200)
I1005 22:46:36.159368 21476 net.cpp:137] Memory required for data: 227833856
I1005 22:46:36.159407 21476 layer_factory.hpp:77] Creating layer relu1
I1005 22:46:36.159426 21476 net.cpp:84] Creating Layer relu1
I1005 22:46:36.159435 21476 net.cpp:406] relu1 <- conv1
I1005 22:46:36.159443 21476 net.cpp:367] relu1 -> conv1 (in-place)
I1005 22:46:36.159704 21476 net.cpp:122] Setting up relu1
I1005 22:46:36.159713 21476 net.cpp:129] Top shape: 128 96 55 55 (37171200)
I1005 22:46:36.159718 21476 net.cpp:137] Memory required for data: 376518656
I1005 22:46:36.159726 21476 layer_factory.hpp:77] Creating layer pool1
I1005 22:46:36.159734 21476 net.cpp:84] Creating Layer pool1
I1005 22:46:36.159740 21476 net.cpp:406] pool1 <- conv1
I1005 22:46:36.159747 21476 net.cpp:380] pool1 -> pool1
I1005 22:46:36.159811 21476 net.cpp:122] Setting up pool1
I1005 22:46:36.159818 21476 net.cpp:129] Top shape: 128 96 27 27 (8957952)
I1005 22:46:36.159823 21476 net.cpp:137] Memory required for data: 412350464
I1005 22:46:36.159828 21476 layer_factory.hpp:77] Creating layer norm1
I1005 22:46:36.159840 21476 net.cpp:84] Creating Layer norm1
I1005 22:46:36.159845 21476 net.cpp:406] norm1 <- pool1
I1005 22:46:36.159852 21476 net.cpp:380] norm1 -> norm1
I1005 22:46:36.160068 21476 net.cpp:122] Setting up norm1
I1005 22:46:36.160076 21476 net.cpp:129] Top shape: 128 96 27 27 (8957952)
I1005 22:46:36.160081 21476 net.cpp:137] Memory required for data: 448182272
I1005 22:46:36.160086 21476 layer_factory.hpp:77] Creating layer conv2
I1005 22:46:36.160100 21476 net.cpp:84] Creating Layer conv2
I1005 22:46:36.160106 21476 net.cpp:406] conv2 <- norm1
I1005 22:46:36.160135 21476 net.cpp:380] conv2 -> conv2
I1005 22:46:36.168269 21476 net.cpp:122] Setting up conv2
I1005 22:46:36.168318 21476 net.cpp:129] Top shape: 128 256 27 27 (23887872)
I1005 22:46:36.168324 21476 net.cpp:137] Memory required for data: 543733760
I1005 22:46:36.168352 21476 layer_factory.hpp:77] Creating layer relu2
I1005 22:46:36.168370 21476 net.cpp:84] Creating Layer relu2
I1005 22:46:36.168376 21476 net.cpp:406] relu2 <- conv2
I1005 22:46:36.168386 21476 net.cpp:367] relu2 -> conv2 (in-place)
I1005 22:46:36.168643 21476 net.cpp:122] Setting up relu2
I1005 22:46:36.168653 21476 net.cpp:129] Top shape: 128 256 27 27 (23887872)
I1005 22:46:36.168658 21476 net.cpp:137] Memory required for data: 639285248
I1005 22:46:36.168663 21476 layer_factory.hpp:77] Creating layer pool2
I1005 22:46:36.168673 21476 net.cpp:84] Creating Layer pool2
I1005 22:46:36.168680 21476 net.cpp:406] pool2 <- conv2
I1005 22:46:36.168687 21476 net.cpp:380] pool2 -> pool2
I1005 22:46:36.168745 21476 net.cpp:122] Setting up pool2
I1005 22:46:36.168753 21476 net.cpp:129] Top shape: 128 256 13 13 (5537792)
I1005 22:46:36.168758 21476 net.cpp:137] Memory required for data: 661436416
I1005 22:46:36.168762 21476 layer_factory.hpp:77] Creating layer norm2
I1005 22:46:36.168774 21476 net.cpp:84] Creating Layer norm2
I1005 22:46:36.168779 21476 net.cpp:406] norm2 <- pool2
I1005 22:46:36.168788 21476 net.cpp:380] norm2 -> norm2
I1005 22:46:36.169358 21476 net.cpp:122] Setting up norm2
I1005 22:46:36.169369 21476 net.cpp:129] Top shape: 128 256 13 13 (5537792)
I1005 22:46:36.169374 21476 net.cpp:137] Memory required for data: 683587584
I1005 22:46:36.169379 21476 layer_factory.hpp:77] Creating layer conv3
I1005 22:46:36.169394 21476 net.cpp:84] Creating Layer conv3
I1005 22:46:36.169399 21476 net.cpp:406] conv3 <- norm2
I1005 22:46:36.169409 21476 net.cpp:380] conv3 -> conv3
I1005 22:46:36.182930 21476 net.cpp:122] Setting up conv3
I1005 22:46:36.182968 21476 net.cpp:129] Top shape: 128 384 13 13 (8306688)
I1005 22:46:36.182976 21476 net.cpp:137] Memory required for data: 716814336
I1005 22:46:36.182999 21476 layer_factory.hpp:77] Creating layer relu3
I1005 22:46:36.183013 21476 net.cpp:84] Creating Layer relu3
I1005 22:46:36.183044 21476 net.cpp:406] relu3 <- conv3
I1005 22:46:36.183055 21476 net.cpp:367] relu3 -> conv3 (in-place)
I1005 22:46:36.183511 21476 net.cpp:122] Setting up relu3
I1005 22:46:36.183522 21476 net.cpp:129] Top shape: 128 384 13 13 (8306688)
I1005 22:46:36.183527 21476 net.cpp:137] Memory required for data: 750041088
I1005 22:46:36.183532 21476 layer_factory.hpp:77] Creating layer conv4
I1005 22:46:36.183545 21476 net.cpp:84] Creating Layer conv4
I1005 22:46:36.183553 21476 net.cpp:406] conv4 <- conv3
I1005 22:46:36.183562 21476 net.cpp:380] conv4 -> conv4
I1005 22:46:36.194980 21476 net.cpp:122] Setting up conv4
I1005 22:46:36.195016 21476 net.cpp:129] Top shape: 128 384 13 13 (8306688)
I1005 22:46:36.195021 21476 net.cpp:137] Memory required for data: 783267840
I1005 22:46:36.195039 21476 layer_factory.hpp:77] Creating layer relu4
I1005 22:46:36.195055 21476 net.cpp:84] Creating Layer relu4
I1005 22:46:36.195061 21476 net.cpp:406] relu4 <- conv4
I1005 22:46:36.195072 21476 net.cpp:367] relu4 -> conv4 (in-place)
I1005 22:46:36.195536 21476 net.cpp:122] Setting up relu4
I1005 22:46:36.195547 21476 net.cpp:129] Top shape: 128 384 13 13 (8306688)
I1005 22:46:36.195552 21476 net.cpp:137] Memory required for data: 816494592
I1005 22:46:36.195557 21476 layer_factory.hpp:77] Creating layer conv5
I1005 22:46:36.195572 21476 net.cpp:84] Creating Layer conv5
I1005 22:46:36.195577 21476 net.cpp:406] conv5 <- conv4
I1005 22:46:36.195585 21476 net.cpp:380] conv5 -> conv5
I1005 22:46:36.204514 21476 net.cpp:122] Setting up conv5
I1005 22:46:36.204550 21476 net.cpp:129] Top shape: 128 256 13 13 (5537792)
I1005 22:46:36.204557 21476 net.cpp:137] Memory required for data: 838645760
I1005 22:46:36.204584 21476 layer_factory.hpp:77] Creating layer relu5
I1005 22:46:36.204598 21476 net.cpp:84] Creating Layer relu5
I1005 22:46:36.204628 21476 net.cpp:406] relu5 <- conv5
I1005 22:46:36.204639 21476 net.cpp:367] relu5 -> conv5 (in-place)
I1005 22:46:36.204831 21476 net.cpp:122] Setting up relu5
I1005 22:46:36.204840 21476 net.cpp:129] Top shape: 128 256 13 13 (5537792)
I1005 22:46:36.204845 21476 net.cpp:137] Memory required for data: 860796928
I1005 22:46:36.204852 21476 layer_factory.hpp:77] Creating layer pool5
I1005 22:46:36.204861 21476 net.cpp:84] Creating Layer pool5
I1005 22:46:36.204867 21476 net.cpp:406] pool5 <- conv5
I1005 22:46:36.204874 21476 net.cpp:380] pool5 -> pool5
I1005 22:46:36.204919 21476 net.cpp:122] Setting up pool5
I1005 22:46:36.204927 21476 net.cpp:129] Top shape: 128 256 6 6 (1179648)
I1005 22:46:36.204932 21476 net.cpp:137] Memory required for data: 865515520
I1005 22:46:36.204938 21476 layer_factory.hpp:77] Creating layer fc6
I1005 22:46:36.204953 21476 net.cpp:84] Creating Layer fc6
I1005 22:46:36.204959 21476 net.cpp:406] fc6 <- pool5
I1005 22:46:36.204967 21476 net.cpp:380] fc6 -> fc6
I1005 22:46:36.701388 21476 net.cpp:122] Setting up fc6
I1005 22:46:36.701436 21476 net.cpp:129] Top shape: 128 4096 (524288)
I1005 22:46:36.701443 21476 net.cpp:137] Memory required for data: 867612672
I1005 22:46:36.701462 21476 layer_factory.hpp:77] Creating layer relu6
I1005 22:46:36.701478 21476 net.cpp:84] Creating Layer relu6
I1005 22:46:36.701484 21476 net.cpp:406] relu6 <- fc6
I1005 22:46:36.701496 21476 net.cpp:367] relu6 -> fc6 (in-place)
I1005 22:46:36.701774 21476 net.cpp:122] Setting up relu6
I1005 22:46:36.701783 21476 net.cpp:129] Top shape: 128 4096 (524288)
I1005 22:46:36.701788 21476 net.cpp:137] Memory required for data: 869709824
I1005 22:46:36.701795 21476 layer_factory.hpp:77] Creating layer drop6
I1005 22:46:36.701805 21476 net.cpp:84] Creating Layer drop6
I1005 22:46:36.701812 21476 net.cpp:406] drop6 <- fc6
I1005 22:46:36.701818 21476 net.cpp:367] drop6 -> fc6 (in-place)
I1005 22:46:36.701844 21476 net.cpp:122] Setting up drop6
I1005 22:46:36.701853 21476 net.cpp:129] Top shape: 128 4096 (524288)
I1005 22:46:36.701858 21476 net.cpp:137] Memory required for data: 871806976
I1005 22:46:36.701863 21476 layer_factory.hpp:77] Creating layer fc7
I1005 22:46:36.701874 21476 net.cpp:84] Creating Layer fc7
I1005 22:46:36.701877 21476 net.cpp:406] fc7 <- fc6
I1005 22:46:36.701885 21476 net.cpp:380] fc7 -> fc7
I1005 22:46:36.922456 21476 net.cpp:122] Setting up fc7
I1005 22:46:36.922505 21476 net.cpp:129] Top shape: 128 4096 (524288)
I1005 22:46:36.922511 21476 net.cpp:137] Memory required for data: 873904128
I1005 22:46:36.922531 21476 layer_factory.hpp:77] Creating layer relu7
I1005 22:46:36.922546 21476 net.cpp:84] Creating Layer relu7
I1005 22:46:36.922554 21476 net.cpp:406] relu7 <- fc7
I1005 22:46:36.922564 21476 net.cpp:367] relu7 -> fc7 (in-place)
I1005 22:46:36.922863 21476 net.cpp:122] Setting up relu7
I1005 22:46:36.922873 21476 net.cpp:129] Top shape: 128 4096 (524288)
I1005 22:46:36.922878 21476 net.cpp:137] Memory required for data: 876001280
I1005 22:46:36.922883 21476 layer_factory.hpp:77] Creating layer drop7
I1005 22:46:36.922895 21476 net.cpp:84] Creating Layer drop7
I1005 22:46:36.922905 21476 net.cpp:406] drop7 <- fc7
I1005 22:46:36.922914 21476 net.cpp:367] drop7 -> fc7 (in-place)
I1005 22:46:36.922935 21476 net.cpp:122] Setting up drop7
I1005 22:46:36.922943 21476 net.cpp:129] Top shape: 128 4096 (524288)
I1005 22:46:36.922948 21476 net.cpp:137] Memory required for data: 878098432
I1005 22:46:36.922953 21476 layer_factory.hpp:77] Creating layer fc8
I1005 22:46:36.922963 21476 net.cpp:84] Creating Layer fc8
I1005 22:46:36.922968 21476 net.cpp:406] fc8 <- fc7
I1005 22:46:36.922976 21476 net.cpp:380] fc8 -> fc8
I1005 22:46:37.490339 21476 net.cpp:122] Setting up fc8
I1005 22:46:37.490388 21476 net.cpp:129] Top shape: 128 10572 (1353216)
I1005 22:46:37.490394 21476 net.cpp:137] Memory required for data: 883511296
I1005 22:46:37.490417 21476 layer_factory.hpp:77] Creating layer loss
I1005 22:46:37.490432 21476 net.cpp:84] Creating Layer loss
I1005 22:46:37.490440 21476 net.cpp:406] loss <- fc8
I1005 22:46:37.490471 21476 net.cpp:406] loss <- label
I1005 22:46:37.490483 21476 net.cpp:380] loss -> loss
I1005 22:46:37.490507 21476 layer_factory.hpp:77] Creating layer loss
…
